best_nettalk_zero_delay.pth (torch, 279817 bytes, 5 tensors)

embed.weight f4 [32, 32]
0	0xbe5cab5e	-0.21549746
1	0xbf782dfc	-0.96945167
2	0x3f123074	0.57105184
3	0x3f7da52e	0.9908017
4	0xbfcb9f63	-1.5908016
5	0xbf3e7d82	-0.7441026
6	0x3e1904a9	0.14943184
7	0x3f75fa34	0.96084905
8	0xbfa0bcb8	-1.2557592
9	0x3f4c649c	0.7984102
10	0x3ecdee48	0.40220857
11	0xbf9daac7	-1.2317742
12	0xbf30bd21	-0.6903859
13	0xbfbbc117	-1.4668301
14	0x3ee9bc97	0.45651695
15	0x3eeb335b	0.4593762
16	0xbf8ebba2	-1.1151011
17	0x3f462e21	0.7741414
18	0x3e3eb47c	0.18623537
19	0x3d5b15d4	0.053487614
20	0xbf812cd1	-1.0091802
21	0xc007bedf	-2.1210248
22	0x3fde7075	1.7378069
23	0x3ec79940	0.38984108
24	0x3eaf04d9	0.34183386
25	0x3f4b59de	0.79434
26	0x3fc7e856	1.5617778
27	0xbe657b7e	-0.2241039
28	0xbe95b518	-0.29239726
29	0xbf6111cb	-0.87917775
30	0x3e39e288	0.18152821
31	0x3eb9e558	0.36307788
32	0xbd8d836d	-0.06909833
33	0xbf7b17e5	-0.98083335
34	0xbd91bb03	-0.07115748
35	0xbf5f0ef6	-0.87132204
36	0xbd73a185	-0.05948021
37	0x3efc270d	0.49248543
38	0xbeb08b1b	-0.3448113
39	0x3f44abca	0.7682463
40	0xbf279ce4	-0.6547377
41	0xbf46e1a7	-0.7768807
42	0x3f130121	0.574236
43	0xbf49a25d	-0.7876337
44	0x3eb2fcbe	0.34958452
45	0xbefce37a	-0.493923
46	0x3f06d513	0.52668875
47	0xbea094ef	-0.31363627
48	0xbed651ea	-0.4185937
49	0xbf0c8915	-0.5489667
50	0xbe4a60fb	-0.19763558
51	0xbe59190d	-0.21200962
52	0xbe48a658	-0.19594705
53	0xbfa96d09	-1.32364
54	0xbeb16469	-0.3464692
55	0xbf2c5a8d	-0.6732567
56	0xbdd56222	-0.10419108
57	0x3f9af4b3	1.2105926
58	0x3f01edbb	0.5075337
59	0x3e20a530	0.15688014
60	0xbf8c945a	-1.0982773
61	0xbf33712a	-0.7009455
62	0xbd8c32e1	-0.06845642
63	0xbeb668e0	-0.35626888
64	0x3f05dee5	0.52293235
65	0xbf5faa67	-0.8736939
66	0x3e7507d0	0.23928761
67	0xbf2538f7	-0.64540046
68	0x3e57516d	0.21027155
69	0x3f3e4149	0.7431837
70	0x3e80f19c	0.25184333
71	0x3dc80e4a	0.097683504
72	0x3d93d596	0.07218473
73	0xbf0715e8	-0.527678
74	0x3fb1cb16	1.3890102
75	0x3f42f0d9	0.76148754
76	0x3e595b01	0.21226121
77	0x3ead6565	0.3386642
78	0xbedde949	-0.43342045
79	0xbe3bac06	-0.1832734
80	0xbf800cc6	-1.0003898
81	0xbc6228c6	-0.013803666
82	0x3eab758e	0.33488125
83	0x3e45f422	0.1933141
84	0xbeef4b88	-0.46737313
85	0xbec4fd9c	-0.3847474
86	0xbe9c4be4	-0.3052665
87	0xbe7aac73	-0.24479847
88	0x3e045105	0.12921531
89	0x3dc4e248	0.09613472
90	0xbe11d52e	-0.14241478
91	0xbd615b5c	-0.055018768
92	0xbfb4ce80	-1.4125519
93	0xbefe1bac	-0.49630487
94	0xbeb1ab9a	-0.34701234
95	0xbd5d9756	-0.054099403
96	0xbe946aa4	-0.2898761
97	0xbeb7713e	-0.35828584
98	0x3f95c3d1	1.1700383
99	0x3f1de67e	0.6167983
100	0x402c0944	2.6880655
101	0x3f9c6998	1.2219725
102	0x3f755116	0.9582685
103	0xbfd4cda8	-1.6625261
104	0x3f0cc9a8	0.54995203
105	0x3e07481f	0.13211106
106	0x3f5b56ca	0.85679305
107	0x3e7ab07c	0.24481386
108	0x3fc10b98	1.5081663
109	0x3f11b8c2	0.56922543
110	0x3e9eabae	0.30990356
111	0x3e49a9fd	0.19693752
112	0xbf57f8f7	-0.84364265
113	0xbec5215f	-0.38502023
114	0x3fca3002	1.5795901
115	0xbe75242c	-0.2393958
116	0x3f07d00c	0.5305183
117	0x3fba21a7	1.454152
118	0xbfabff48	-1.3437281
119	0xbfbf5db9	-1.4950477
120	0x3ffcbb7a	1.9744713
121	0xbdb0e405	-0.08637241
122	0xbf7ffc52	-0.99994385
123	0x3fe3a5fc	1.778503
124	0x3fbc006b	1.4687628
125	0xbdc4cff9	-0.0960998
126	0xbeada51d	-0.33915034
127	0x3e80093e	0.2500705
128	0x401de369	2.467005
129	0x3f6c1334	0.922168
130	0x3f8b4d84	1.0883031
131	0xbe1111c3	-0.14166932
132	0xbf22660d	-0.6343697
133	0x3f8341ff	1.0254515
134	0x3e98f892	0.29877144
135	0xbf405a8e	-0.75138175
136	0xbf89d25b	-1.076732
137	0x4007c977	2.1216714
138	0xbefbcdd9	-0.49180487
139	0xbf52fab0	-0.8241377
140	0x3e86a394	0.26296675
141	0x3f3c5fcb	0.7358367
142	0x3f420b53	0.7579853
143	0x3d5c5e49	0.053800855
144	0x3f44692c	0.7672298
145	0x3f3cee6d	0.7380131
146	0x40949781	4.643494
147	0xbf775e5e	-0.9662837
148	0xc008f3b0	-2.1398735
149	0xbec86b4e	-0.39144367
150	0xbfbbf98a	-1.4685528
151	0xbed9c8b2	-0.4253593
152	0x4011629f	2.2716444
153	0xbeb30fbb	-0.3497294
154	0xbf25b7d8	-0.6473365
155	0xbe45c4c3	-0.1931334
156	0x401c72f5	2.4445164
157	0x3dffc46e	0.12488638
158	0xbf8d9a21	-1.1062661
159	0xc008ac94	-2.1355333
160	0x3f44e263	0.7690794
161	0x3f8b9b70	1.0906811
162	0xbf172ff1	-0.5905753
163	0x3f7765c8	0.9663968
164	0x3f5d0844	0.8634074
165	0xbf5cda5b	-0.86270684
166	0x3f1a8704	0.6036227
167	0x3e6dcdea	0.23223081
168	0xbe8d35d8	-0.27580142
169	0x3f3b5b96	0.73186624
170	0x3d558698	0.05213031
171	0x3f4da221	0.80325514
172	0x3f4abd2a	0.7919489
173	0x3fbbfb9c	1.468616
174	0xc01764f1	-2.365536
175	0xbefd5877	-0.49481556
176	0xbf572638	-0.8404269
177	0x3f099018	0.53735495
178	0xbe2cfe3b	-0.16893856
179	0xbf270cb4	-0.6525376
180	0x3e680ec1	0.22661878
181	0x3f53b1a1	0.82692915
182	0xbdd7de1e	-0.10540412
183	0xbd99c143	-0.07507565
184	0x3b4d22b0	0.0031301193
185	0xbf5e6cf5	-0.86885005
186	0xbed56c61	-0.4168425
187	0x3facb65f	1.3493155
188	0xbfb42418	-1.4073515
189	0xbf098a23	-0.53726405
190	0x3f287e5f	0.65817827
191	0x3d42aead	0.047529865
192	0x3ea7f433	0.32803497
193	0xbf112c80	-0.56708527
194	0x3eed7157	0.46375534
195	0x3f4cdab8	0.8002124
196	0xbf1a69c0	-0.6031761
197	0xbf58d369	-0.84697586
198	0xbfaf53af	-1.3697413
199	0x3f0db61b	0.55355996
200	0xbf151ceb	-0.5824725
201	0x3f3402ce	0.7031678
202	0xbf688b36	-0.9083742
203	0x3fb7820c	1.4336562
204	0x3e8d8c9a	0.27646333
205	0xbe3d33be	-0.1847677
206	0x3fd2d611	1.6471578
207	0xbf588439	-0.84576756
208	0xbf90b5fe	-1.130554
209	0xbfe07f41	-1.7538835
210	0x3f7c9a47	0.9867291
211	0xbf431a44	-0.76211953
212	0xbe021b82	-0.12705806
213	0x3f0d2a3c	0.5514257
214	0x3ebefe2c	0.37303293
215	0x3f052b94	0.5201962
216	0x3f85cf21	1.0453836
217	0x3ea00f53	0.3126169
218	0xbf203c00	-0.6259155
219	0xbd99d2ca	-0.07510908
220	0xbf70c0fd	-0.94044477
221	0x3f125022	0.5715352
222	0x3f960f19	1.1723357
223	0xbdd3962c	-0.103313774
224	0xbfc8fa29	-1.5701343
225	0x3f6a4e7b	0.91526
226	0x3f13207c	0.5747144
227	0x3f95b4a0	1.1695747
228	0xbf9ce1cf	-1.2256411
229	0xbef48a68	-0.47761846
230	0x3fdb6779	1.7140952
231	0x3f1c1dba	0.6098286
232	0xbf7f3b23	-0.9969961
233	0xbe9b4908	-0.30329156
234	0x400855ea	2.1302438
235	0xbf7326f1	-0.94981295
236	0x40061d59	2.0955412
237	0x3f118213	0.568391
238	0x3f32730b	0.6970679
239	0xbe3a9cc8	-0.1822387
240	0x3cd8d8df	0.0264706
241	0x3eec2ddf	0.46128747
242	0x3f84bd0c	1.0370193
243	0xbde7cae4	-0.11317995
244	0x3fb2aa01	1.3958131
245	0xbf23e583	-0.6402208
246	0x399e6b4e	0.00030216057
247	0x3fd269da	1.6438553
248	0xbebe7bcd	-0.37203828
249	0x3f0428b6	0.5162462
250	0xbfd0b071	-1.6303846
251	0xbf83f7a0	-1.0309944
252	0x3ee7c986	0.45270938
253	0xbfdf1b75	-1.7430254
254	0x3f925eeb	1.1435217
255	0x3d85aeda	0.06527491

fc1.weight f4 [256, 224]
0	0xbd11d3e2	-0.035602458
1	0x3e086481	0.13319589
2	0xbd99397a	-0.07481666
3	0xbd8e91f4	-0.06961432
4	0x3d51a791	0.051185194
5	0xbd4b75c6	-0.049672864
6	0xbdb6a119	-0.08917446
7	0xbd29068d	-0.041266013
8	0x3e3b9402	0.18318179
9	0xbdd8f183	-0.1059294
10	0xbdff628d	-0.12469969
11	0x3d891d46	0.066950366
12	0x3d0cc7dc	0.03437029
13	0xbd8cd699	-0.06876869
14	0xbdebd3b1	-0.11514986
15	0x3e02d87a	0.12777892
16	0x3cd81db8	0.026381359
17	0xbe3117c0	-0.17294216
18	0x3d269524	0.040669575
19	0x3c203237	0.009777597
20	0xbdfaf9a6	-0.12254648
21	0x3e51811c	0.20459408
22	0x3e05f275	0.13080771
23	0xbdf1090f	-0.11769306
24	0xbe0a79fc	-0.13523096
25	0xbc2a6554	-0.010400135
26	0xbeaa1770	-0.33221006
27	0xbcf999e6	-0.030468892
28	0xbe12a17d	-0.14319415
29	0x3eb0d796	0.3453948
30	0xbd7ceee7	-0.061751273
31	0x3d1bc809	0.038032565
32	0x3e276f5c	0.16351074
33	0xbe1fac4e	-0.15593073
34	0x3e5e37d9	0.21700992
35	0xbde775f5	-0.113017954
36	0x3dfcecac	0.12349829
37	0x3da0ee97	0.078580074
38	0xbecd6350	-0.40114832
39	0x3e42f402	0.19038394
40	0xbd902992	-0.07039179
41	0xbdb7a19d	-0.08966372
42	0xbdca3b86	-0.098746344
43	0x3d15fe35	0.036619384
44	0xbd231665	-0.03981628
45	0xbcd19ae7	-0.025586559
46	0xbe0ebeee	-0.13940021
47	0x3cfb2ec7	0.030661954
48	0x3e57cf40	0.21075153
49	0xbd4d3df9	-0.05010793
50	0xbd3fa28d	-0.04678588
51	0xbccadfa6	-0.024764847
52	0xbe271f70	-0.16320586
53	0xbdd94e5a	-0.106106475
54	0xbd954a9f	-0.072896235
55	0xbe805be7	-0.25070116
56	0x3d185e9e	0.03719961
57	0x3d7a3d7b	0.06109379
58	0xbd8a0c0f	-0.06740581
59	0x3e2ba9e8	0.16764033
60	0x3e55919d	0.20856328
61	0x3e473f50	0.19457746
62	0xbe372cb7	-0.17888151
63	0xbe54a397	-0.2076553
64	0x3d96fe1d	0.07372687
65	0x3e1d00bf	0.15332316
66	0x3dd2045c	0.10254738
67	0xbe0333c5	-0.12812717
68	0x3ded586e	0.11589132
69	0x3d7fb8d3	0.06243212
70	0xbde86e62	-0.11349179
71	0xbe4a7288	-0.19770253
72	0xbe32fecd	-0.17480011
73	0x3eb34760	0.35015392
74	0x3c9ed630	0.019389242
75	0xbd5153bb	-0.051105242
76	0xbcd529c3	-0.02602089
77	0x3cf199cc	0.029492281
78	0xbd5d550b	-0.05403618
79	0xbd26fd8d	-0.04076915
80	0x3e84c36b	0.25930342
81	0x3e019848	0.12655747
82	0x3cf26b22	0.0295921
83	0x3dd94a30	0.10609853
84	0x3db15e02	0.08660509
85	0x3d1a4386	0.03766205
86	0xbe4fefa9	-0.20306267
87	0xbde6bc50	-0.112663865
88	0xbd8cf3e4	-0.06882456
89	0xbde0b10e	-0.109712705
90	0x3d55a0d0	0.052155316
91	0xbcb6415b	-0.02224796
92	0x3e6ad79f	0.22933815
93	0x3d50a3c7	0.05093744
94	0xbdf0595d	-0.11735795
95	0x3da81eaa	0.08208974
96	0xbe86f3c2	-0.26357847
97	0x3dc2ebef	0.09517657
98	0x3de791cc	0.113071054
99	0x3e46301b	0.19354288
100	0xbd177237	-0.03697416
101	0x3e20878c	0.15676707
102	0xbe8c0429	-0.27346924
103	0x3de36942	0.11104061
104	0xbdc92ed6	-0.09823386
105	0xbe1b98f9	-0.15195073
106	0x3d9ab7b7	0.07554572
107	0xbc85ace2	-0.016317789
108	0xbe1226f3	-0.1427267
109	0xbeaa2b13	-0.33235988
110	0xbe32b922	-0.17453435
111	0xbcd81144	-0.02637542
112	0x3def274b	0.116774164
113	0x3e9cced6	0.30626553
114	0x3d1d8d72	0.03846497
115	0x3d81ad75	0.063319124
116	0xbb887926	-0.0041648326
117	0x3e9d7385	0.30752197
118	0xbe8c8fa9	-0.27453354
119	0xbeead330	-0.45864248
120	0x3e215fc9	0.15759195
121	0x3e810e7e	0.2520637
122	0x3e0af6a2	0.13570645
123	0xbda51293	-0.080601834
124	0xba8212ca	-0.0009923812
125	0xbef80f3d	-0.48449126
126	0xbe1aafac	-0.15106076
127	0x3d7cc622	0.06171239
128	0xbe66e34a	-0.22547641
129	0xbce5f4d0	-0.028070837
130	0x3e659303	0.22419362
131	0x3dd3fdf2	0.103511706
132	0x3df71691	0.12064851
133	0x3e9788bb	0.29596505
134	0xbeb0e9b5	-0.34553304
135	0x3ea3df60	0.3200636
136	0xbe25be5d	-0.16185899
137	0xbc2488c0	-0.010042369
138	0xbe4eeec6	-0.20208272
139	0x3e5b57f4	0.2142027
140	0xbd8b71c3	-0.06808808
141	0xbec817d9	-0.39080694
142	0xbe89b916	-0.26899022
143	0x3e44dee2	0.19225648
144	0xbed924c2	-0.42410856
145	0x3e898050	0.26855707
146	0x3e3c8f82	0.18414119
147	0x3e80ce1c	0.2515725
148	0x3e361e33	0.17784958
149	0x3d718f0d	0.058974314
150	0xbed9d63a	-0.42546254
151	0xbef3cd08	-0.47617364
152	0xbd587c6b	-0.05285303
153	0x3e55e539	0.20888223
154	0x3dca6abc	0.09883639
155	0xbe4b25bb	-0.19838612
156	0x3cd5dc69	0.026106076
157	0xbe0ce6d2	-0.13759926
158	0xbc5b498e	-0.013384236
159	0x3ba7f2bf	0.005125373
160	0xbe2dd713	-0.16976576
161	0x3d28b6a0	0.04118979
162	0x3eb29c2b	0.34884772
163	0xbd97bd53	-0.074091576
164	0x3d61f3eb	0.05516426
165	0x3e694488	0.22780049
166	0xbc5b8783	-0.013399008
167	0x3e9fbe12	0.311997
168	0x3d5a451f	0.053288575
169	0x3cdb6c08	0.026784912
170	0xbd53ddc5	-0.051725168
171	0xbe4b80de	-0.19873378
172	0x3deceb03	0.115682624
173	0xbef3d5a7	-0.4762394
174	0xbef93f23	-0.48680982
175	0x3d6fa62f	0.058508094
176	0xbe7b31c9	-0.2453071
177	0x3ea18d26	0.31553
178	0x3d629bb4	0.05532427
179	0x3ddecb67	0.1087864
180	0x3edbbac7	0.42915937
181	0xbdb247a6	-0.08705072
182	0xbe795512	-0.24348858
183	0xbed2f124	-0.411996
184	0xbde835d0	-0.11338389
185	0xbc7e0ee5	-0.015506481
186	0xbd098456	-0.03357347
187	0xbe189875	-0.14901908
188	0x3d847119	0.06466884
189	0xbdfe32a9	-0.124120064
190	0xbdcd017a	-0.10010047
191	0x3d838baf	0.06423127
192	0xbe818d98	-0.2530334
193	0xbd92708f	-0.07150375
194	0x3da203a7	0.07910853
195	0xbeb20ccd	-0.3477539
196	0xbd71d4c5	-0.059040803
197	0xba12e4ed	-0.00056035706
198	0xbe3dc010	-0.18530297
199	0x3e0aec30	0.13566661
200	0xbd439951	-0.047753636
201	0xbd841718	-0.06449717
202	0xbdb9d0dd	-0.09073041
203	0xbdbf7393	-0.09348216
204	0xbe1562ca	-0.14588466
205	0xbe091f67	-0.13390885
206	0xbe8b9417	-0.2726142
207	0xbe042fa5	-0.129088
208	0xbd0f8342	-0.035037287
209	0xbd738b6f	-0.059459146
210	0x3e4101c0	0.18848324
211	0xbd92b379	-0.07163138
212	0x3e037e65	0.12841184
213	0xbdebce45	-0.11513952
214	0xbdd0a319	-0.101873584
215	0xbea54f00	-0.32286835
216	0xbce305c0	-0.027712703
217	0x3e0366e8	0.12832224
218	0x3d95e5ac	0.07319197
219	0xbd8ee3c0	-0.069770336
220	0x3d359b02	0.04433728
221	0xbdf380ac	-0.118897766
222	0x3e415c9b	0.18882982
223	0x3dff5150	0.12466681
224	0xbe0d9813	-0.13827543
225	0x3d92e890	0.07173264
226	0x3e3afdd3	0.18260889
227	0x3ddbdacb	0.10735091
228	0xbb958f30	-0.0045641884
229	0xbe5b8b20	-0.2143979
230	0xbd974ce4	-0.073877126
231	0x3e76b9c8	0.24094307
232	0x3e1fe21c	0.15613598
233	0xbe89b8d2	-0.2689882
234	0xbe9f37d3	-0.31097278
235	0x3e855056	0.26037854
236	0xbd7f6bdc	-0.062358722
237	0xbdbf124e	-0.09329663
238	0x3de48bc9	0.111594744
239	0xbd855678	-0.06510633
240	0x3e07633a	0.13221446
241	0x3d9fd474	0.07804194
242	0x3ab4f2c3	0.0013805259
243	0xbea819ab	-0.32832083
244	0x3d1523af	0.036410984
245	0x3ce622de	0.028092798
246	0xbd886e04	-0.06661609
247	0xbe0ec7fb	-0.13943474
248	0xbdc1c9ab	-0.09462293
249	0xbda87beb	-0.082267605
250	0x3d1e3005	0.038620014
251	0x3e1da52d	0.15395041
252	0xbd0d2688	-0.034460574
253	0x3df0fd5e	0.11767076
254	0x3cf6001f	0.030029355
255	0xbd6a7423	-0.057239663

fc1.bias f4 [256]
0	0xbea2231d	-0.31667414
1	0xbe2c4ff6	-0.16827378
2	0xbe3baa16	-0.18326601
3	0xbe8ce244	-0.27516377
4	0xbe1dcf42	-0.15411094
5	0xbe6e3b61	-0.23264839
6	0xbdf59da0	-0.11992955
7	0xbe8040cb	-0.25049433
8	0xbdb7d0b3	-0.08975353
9	0xbe284a72	-0.16434649
10	0xbeb50bf9	-0.35360697
11	0xbeacd667	-0.33757326
12	0xbe8fefb2	-0.2811256
13	0xbdf11fa0	-0.1177361
14	0xbe771919	-0.24130668
15	0xbe824225	-0.2544109
16	0xbe318cc4	-0.17338854
17	0xbe51dae5	-0.20493658
18	0xbe03bbfb	-0.12864678
19	0xbe6227cf	-0.22085498
20	0xbe938e40	-0.28819466
21	0xbead8810	-0.3389287
22	0xbc2aaf7d	-0.010417816
23	0xbe5950ce	-0.21222231
24	0xbe0c6b30	-0.13712764
25	0xbe5390ca	-0.20660701
26	0xbe5892a1	-0.21149684
27	0xbe189899	-0.14901961
28	0xbee7a0c2	-0.45239836
29	0xbd22271c	-0.03958808
30	0xbe2da6d4	-0.16958171
31	0xbe577bb8	-0.21043289
32	0xbe63f864	-0.22262722
33	0xbe93afdd	-0.2884511
34	0xbe9ff9f8	-0.312454
35	0xbe96e27a	-0.29469663
36	0xbe25449d	-0.16139455
37	0xbe33a88f	-0.17544769
38	0xbe385d06	-0.18004236
39	0xbe3582ec	-0.17725724
40	0xbe8dde84	-0.27708828
41	0xbea5d1f9	-0.3238676
42	0xbdc2a6fb	-0.09504505
43	0xbe408630	-0.18801188
44	0xbe4028bc	-0.18765539
45	0xbe3e0028	-0.18554747
46	0xbe9863bb	-0.29763588
47	0xbe5c3523	-0.21504645
48	0xbe4f134e	-0.20222208
49	0xbed055fa	-0.40690595
50	0xbe77e9a1	-0.24210216
51	0xbe5b1929	-0.21396317
52	0xbe8f33c6	-0.27969187
53	0xbdece99a	-0.115679935
54	0xbdb3a9b8	-0.08772606
55	0xbddb93e9	-0.10721571
56	0xbe4e1f11	-0.20129038
57	0xbe5cab9a	-0.21549836
58	0xbe476d44	-0.19475275
59	0xbe3f1eb4	-0.18664056
60	0xbe8b3cb8	-0.27194762
61	0xbe89e5cb	-0.2693313
62	0xbe4a0f17	-0.19732319
63	0xbeaf6be6	-0.34262007
64	0xbdc6cd42	-0.097071186
65	0xbe8b94e7	-0.2726204
66	0xbd25e93e	-0.04050564
67	0xbe1acf05	-0.15118034
68	0xbd645ff1	-0.05575556
69	0xbe9a2dfc	-0.30113208
70	0xbe5e6f75	-0.21722205
71	0xbe01bc1f	-0.12669419
72	0xbe1c31a0	-0.15253305
73	0xbe3f86e0	-0.18703794
74	0xbe54967a	-0.20760527
75	0xbe5aa670	-0.21352553
76	0xbea6adc5	-0.3255445
77	0xbe934f99	-0.28771666
78	0xbe46335c	-0.1935553
79	0xbdc2d26b	-0.0951279
80	0xbe58e87a	-0.21182433
81	0xbec4070d	-0.3828663
82	0x3d071fe2	0.03298939
83	0xbda47c55	-0.08031527
84	0xbe901884	-0.28143704
85	0xbeb368f8	-0.35041022
86	0xbda5afd7	-0.080901794
87	0xbe6e8913	-0.23294477
88	0xbe72b41c	-0.23701519
89	0xbe2994ce	-0.1656067
90	0xbe7ed457	-0.24885689
91	0xbe8c861f	-0.27446076
92	0xbe0ad5b5	-0.13558085
93	0xbe04f2fb	-0.12983315
94	0xbe156349	-0.14588656
95	0xbe12b80e	-0.14328024
96	0xbe9195ee	-0.284347
97	0xbe88b2b1	-0.2669883
98	0xbd744d37	-0.05964395
99	0xbe2a0ae2	-0.16605714
100	0xbd200cc7	-0.039074685
101	0xbe8b5218	-0.2721107
102	0xbe54fe3a	-0.20800105
103	0xbea2be7d	-0.31785956
104	0xbeabfca2	-0.3359118
105	0xbe6396e4	-0.22225529
106	0xbe331c97	-0.17491375
107	0xbdb46eea	-0.08810218
108	0xbe91056d	-0.28324452
109	0xbe349439	-0.17634667
110	0xbe1b158d	-0.1514494
111	0xbe20729d	-0.15668721
112	0xbe6afc97	-0.22947918
113	0xbe9e5705	-0.30925766
114	0xbe9499fb	-0.29023728
115	0xbeb8639a	-0.3601349
116	0xbdf8a459	-0.12140722
117	0xbdf4d898	-0.119553745
118	0xbe77378b	-0.24142282
119	0xbe95d67f	-0.2926521
120	0xbe3193fd	-0.1734161
121	0x3abaea2e	0.0014260465
122	0xbe14ae3a	-0.14519587
123	0xbe322334	-0.17396241
124	0xbe5eff5a	-0.21777096
125	0xbeb80aa2	-0.35945612
126	0xbe927a02	-0.2860871
127	0xbe2978e5	-0.16550024
128	0xbe665f73	-0.22497348
129	0xbe853cfd	-0.26023093
130	0xbeab742e	-0.33487076
131	0xbe68d8b5	-0.22738917
132	0xbe7ceca4	-0.24699646
133	0xbe5db0ae	-0.21649429
134	0xbe940bd5	-0.28915277
135	0xbec29a1b	-0.38008198
136	0xbe2c3200	-0.16815948
137	0xbdc1b1b7	-0.094577245
138	0xbea71a7f	-0.32637402
139	0xbe560f4c	-0.20904273
140	0xbe6ffda7	-0.23436604
141	0xbe18470d	-0.14870854
142	0xbe66ae3f	-0.22527407
143	0xbe68ea89	-0.22745718
144	0xbd1d6182	-0.03842307
145	0x3aeefbe6	0.001823303
146	0xbe93b47d	-0.2884864
147	0xbe4fe371	-0.20301606
148	0xbd502f09	-0.050826106
149	0xbda71c43	-0.08159687
150	0xbe1dfaf1	-0.15427758
151	0xbea14ae6	-0.31502455
152	0xbe90404d	-0.28174058
153	0xbe3655c4	-0.17806154
154	0xbe3f60f9	-0.18689336
155	0xbe4b6fea	-0.1986691
156	0xbe19ad33	-0.15007477
157	0xbe6ec4d0	-0.23317266
158	0xbc318881	-0.010835768
159	0xbd87f27e	-0.066380486
160	0xbd7e67f2	-0.06211085
161	0xbe92c0f0	-0.28662825
162	0xbe149cd5	-0.14512952
163	0xbe0a6172	-0.13513735
164	0xbeb87d0e	-0.3603291
165	0xbe71aed4	-0.23601848
166	0xbe313a22	-0.17307332
167	0xbe8ee293	-0.27907237
168	0xbe8c1b6f	-0.2736468
169	0xbe907cd3	-0.28220233
170	0xbc88c36f	-0.016694752
171	0xbe48ae47	-0.19597732
172	0xbeb49930	-0.35273123
173	0xbe14d2a4	-0.14533478
174	0xbda8161e	-0.082073435
175	0xbe0a4f34	-0.13506776
176	0xbe705cce	-0.23472902
177	0xbe138fd1	-0.1441033
178	0xbe67f70f	-0.22652839
179	0xbe393dbf	-0.1808996
180	0xbe784f62	-0.24249032
181	0xbd71ec23	-0.05906309
182	0xbdcbb9e8	-0.09947568
183	0xbe4b0eb0	-0.19829822
184	0xbe7c1171	-0.24616028
185	0xbe9c1ec3	-0.3049222
186	0xbe843450	-0.2582116
187	0xbec5ad4b	-0.38608775
188	0xbe7a6d38	-0.24455726
189	0xbd157582	-0.036489017
190	0xbe2ab9b8	-0.16672409
191	0xbe12237a	-0.14271346
192	0xbe2c894b	-0.16849248
193	0xbdc8b001	-0.09799195
194	0xbe4a9958	-0.19785058
195	0xbe09e5e5	-0.13466604
196	0xbda09756	-0.07841365
197	0xbe1d0c85	-0.15336807
198	0xbe6bb0bf	-0.23016642
199	0xbd176655	-0.036962826
200	0xbe32b1f8	-0.17450702
201	0xbdd1604d	-0.10223446
202	0xbe8c23c4	-0.27371037
203	0xbe9e29ac	-0.30891168
204	0xbdfc0467	-0.12305527
205	0xbe89493c	-0.26813686
206	0xbe833d0b	-0.2563251
207	0xbe8fbe20	-0.2807474
208	0xbe8afb6b	-0.27144942
209	0xbe60b316	-0.21943316
210	0xbe5fa61a	-0.21840706
211	0xbea39ec7	-0.31957075
212	0xbd1e89b7	-0.038705554
213	0xbe2951bf	-0.1653509
214	0xbeafff28	-0.34374356
215	0xbe0519aa	-0.12998071
216	0xbeb58714	-0.3545462
217	0xbe7142a8	-0.23560584
218	0xbe232bac	-0.15934628
219	0xbe98a20a	-0.29811126
220	0xbe93225e	-0.28737158
221	0xbc8e9091	-0.017402919
222	0xbe3feca2	-0.18742612
223	0xbe4e737b	-0.2016124
224	0xbe9182d3	-0.28420123
225	0x3d024026	0.031799458
226	0xbe3ee974	-0.18643743
227	0xbeaf1ba6	-0.34200782
228	0xbe951e05	-0.29124466
229	0x3d2dbacb	0.042414468
230	0xbe0ed3d8	-0.13948
231	0xbe6d4fb6	-0.23174939
232	0xbe9344b9	-0.2876337
233	0xbe6cdf26	-0.23132
234	0xbe3697de	-0.1783137
235	0xbe55817d	-0.20850177
236	0xbebe8b4c	-0.3721565
237	0xbe27b96f	-0.16379331
238	0xbd4f6afd	-0.05063914
239	0xbe55b876	-0.20871148
240	0xbdac0996	-0.08400266
241	0xbe04b1c4	-0.12958437
242	0xbe4205fe	-0.18947598
243	0xbe1d7094	-0.15374976
244	0xbe63fa95	-0.22263558
245	0xbe900ecd	-0.28136292
246	0xbe275228	-0.16339934
247	0xbef2d21c	-0.47425926
248	0xbe074e2c	-0.13213414
249	0xbe60288f	-0.21890472
250	0xbeae3f92	-0.34032875
251	0xbe258d09	-0.16167082
252	0xbe1e3c46	-0.1545268
253	0xbda56dee	-0.08077608
254	0xbe483509	-0.19551481
255	0xbe3a3798	-0.1818527

fc2.weight f4 [40, 256]
0	0xbe3f5ab4	-0.18686944
1	0x3da3e1fe	0.08002089
2	0x3d2cfdb8	0.042234153
3	0xbe09e31e	-0.13465545
4	0x3bab2a89	0.0052235764
5	0xbcace529	-0.021105366
6	0xbe7bf83e	-0.24606416
7	0x3cc0ea02	0.023549084
8	0x3c325a7d	0.010885832
9	0x3de1daaf	0.11028039
10	0xbdb82ebb	-0.08993288
11	0xbe6f73fb	-0.23384087
12	0x3e012079	0.12610044
13	0x3d4c4a37	0.049875464
14	0xbda6de45	-0.08147863
15	0xbeae24e4	-0.3401252
16	0x3c82f06b	0.01598378
17	0xbe3b6462	-0.18300012
18	0x3d4c986a	0.04995004
19	0xbc90e8dc	-0.017689161
20	0x3df19b30	0.11797178
21	0x3e616c87	0.22014056
22	0xbc3f2c07	-0.011668212
23	0x3c7561d1	0.0149769345
24	0xbe1ea72a	-0.15493456
25	0x3d9ce78d	0.07661352
26	0x3ca480bb	0.020080915
27	0x3d465fb1	0.048431102
28	0x3ceb7e36	0.028746706
29	0x3ad68a48	0.0016368115
30	0x3d0b863a	0.034063555
31	0x3dc9ee2c	0.09859881
32	0x3d5b15b6	0.053487502
33	0xbc4fec9e	-0.012690691
34	0xbec85aea	-0.39131862
35	0xbe520ec5	-0.20513447
36	0x3e3913df	0.18073986
37	0xbc9566a0	-0.018237412
38	0xbc1a88eb	-0.009432058
39	0x3c523bdd	0.012831655
40	0x3d36a596	0.04459151
41	0x3d9ab15e	0.07553361
42	0x3d4c1776	0.04982706
43	0x3e63bc88	0.22239888
44	0xbc4a3469	-0.012341597
45	0x3e12892b	0.14310138
46	0x3c50e301	0.012749434
47	0x3d92e0be	0.071717724
48	0xbbd12b6e	-0.006383351
49	0x3e3fe3ab	0.18739192
50	0xbde251af	-0.11050736
51	0xbda56bfd	-0.08077238
52	0x3eac06a8	0.33598828
53	0xbf241e54	-0.6410878
54	0x3cf656b3	0.030070638
55	0xbf175ab8	-0.591228
56	0xbbf0ecc1	-0.007352442
57	0xbd07d6dd	-0.033163894
58	0x3dc0b50f	0.09409534
59	0xbe22b4a5	-0.15889223
60	0x3d35aad2	0.04435236
61	0x3cf7503c	0.030189626
62	0xbe4bc37d	-0.19898792
63	0xbed5f524	-0.4178859
64	0xbd85eec9	-0.06539685
65	0x3d095f60	0.033538222
66	0xbec56d68	-0.38560033
67	0xbd8500c0	-0.06494284
68	0x3cea7c91	0.028623851
69	0xbea3029e	-0.31837934
70	0xbd588e9b	-0.052870374
71	0x3c0b64bc	0.008507904
72	0x3df0558d	0.117350675
73	0xbe9835b6	-0.29728478
74	0x3dbf30e4	0.09335497
75	0x3d59fc68	0.05321923
76	0xbe584743	-0.21120934
77	0xbdc3e8ff	-0.09565925
78	0x3de94c54	0.113915116
79	0xbdae5411	-0.08512128
80	0x3d1fe6d1	0.039038483
81	0xbe81214e	-0.25220722
82	0xbc80694c	-0.01567521
83	0x3dd8559f	0.10563206
84	0xbeafd502	-0.343422
85	0x3d9d461d	0.07679389
86	0x3cd61760	0.026134193
87	0x3e3356ff	0.17513655
88	0x3df7c2f8	0.12097734
89	0x3c56cbd7	0.013110123
90	0xbc9b7192	-0.018975053
91	0xbd0b2de7	-0.033979323
92	0x3e007811	0.12545802
93	0xbe9e96dd	-0.30974475
94	0x3d9c363f	0.07627534
95	0x3db5adcf	0.08871042
96	0xbe884ea5	-0.266225
97	0x3dad7393	0.0846931
98	0xbeab8eb9	-0.33507326
99	0xbd4dc9e9	-0.050241385
100	0x3d7cc273	0.06170888
101	0xbe994fce	-0.299437
102	0x3c9a6279	0.018845784
103	0x3e5fb090	0.21844697
104	0x3d928006	0.07153325
105	0x3d5e81d5	0.054323036
106	0xbead413a	-0.33838826
107	0x3dd0a5b3	0.101878546
108	0x3db5b743	0.08872845
109	0xbdf0c191	-0.1175567
110	0xbe41b619	-0.18917121
111	0x3d0a9828	0.033836514
112	0x3e0dbf45	0.13842495
113	0x3e055c79	0.13023557
114	0x3d2c121e	0.042009465
115	0xbe22e2ec	-0.15906876
116	0xbe7f80c0	-0.24951458
117	0x3d94a175	0.07257358
118	0xb991ce55	-0.00027810285
119	0x3dbad7a3	0.09123161
120	0xbe3e0953	-0.18558244
121	0x3d35dd13	0.044400286
122	0xbd001baa	-0.031276383
123	0xbcba5b50	-0.02274862
124	0xbedd02ad	-0.43166104
125	0xbe8d888d	-0.27643242
126	0xbd9a46bc	-0.07533023
127	0x3db77883	0.08958533
128	0x3dfa615f	0.12225603
129	0xbc1bdba1	-0.009512813
130	0x3d3cadf0	0.046064317
131	0x3e173e2b	0.14769809
132	0x3dbc723e	0.092014775
133	0x3d80a118	0.06280726
134	0x3d869f1e	0.06573318
135	0x3e51f476	0.2050341
136	0x3d73e751	0.059546772
137	0x3ab63fa1	0.0013904461
138	0x3c8ef918	0.017452762
139	0x3e198bfe	0.14994809
140	0x3e05d137	0.1306809
141	0x3e49d0e7	0.19708596
142	0xbaf5b400	-0.0018745661
143	0x3dacf1ee	0.08444582
144	0xbf0c355f	-0.5476894
145	0x3ddffdea	0.10937102
146	0x3d3c42ea	0.04596225
147	0x3d1e179b	0.03859673
148	0x3d9406e1	0.072278745
149	0x3d9a0efe	0.07522391
150	0x3e19402a	0.14965883
151	0xbe7ce086	-0.24695024
152	0xbde9bd34	-0.11413041
153	0x3d2c32a7	0.042040493
154	0x3cea4a4f	0.028599886
155	0x3cf93f52	0.030425701
156	0xbe396051	-0.18103148
157	0x3d9e87ac	0.07740721
158	0x3cb9b021	0.022666993
159	0x3d62a209	0.05533031
160	0xbd76a8bf	-0.060219523
161	0xbd237560	-0.03990686
162	0x3d25218b	0.040315192
163	0x3d8a99b3	0.06767597
164	0x3e25e0a4	0.16198975
165	0x3e332e27	0.17498074
166	0x3d8057f4	0.06266776
167	0x3e5a3ac4	0.2131148
168	0xba16b5d4	-0.00057491404
169	0x3e34b3e0	0.17646742
170	0xbeb4bf25	-0.35302082
171	0xbf6389ab	-0.8888194
172	0x3db598a9	0.08867008
173	0x3d959d67	0.07305413
174	0x3d0c4a28	0.03425041
175	0x3d745759	0.059653614
176	0x3c87a981	0.016560318
177	0xbd7adecd	-0.061247636
178	0x3e32739b	0.17426912
179	0xbe0cc510	-0.13747048
180	0x3e28f1dd	0.16498514
181	0x3c733d29	0.014846125
182	0xbe34cd2b	-0.1765639
183	0xbd9891aa	-0.07449658
184	0xbe3d51ea	-0.18488279
185	0x3a788758	0.0009480617
186	0x3cbda565	0.023150155
187	0xbe6aaef5	-0.22918303
188	0xbf22192f	-0.6331968
189	0x3d968927	0.073503785
190	0x3c885164	0.016640373
191	0x3dad2f39	0.08456273
192	0x3cdd80cb	0.027038952
193	0xbe12b78a	-0.14327827
194	0x3dac8da2	0.08425452
195	0x3d6b397c	0.05742787
196	0xbd6f9c54	-0.058498695
197	0x3b9d4baf	0.004800282
198	0x3d3d2d12	0.04618556
199	0x3d593b05	0.0530348
200	0x3df3c2f5	0.119024195
201	0x3cfbe9be	0.030751105
202	0x3e0b7d47	0.13622008
203	0xbc5dc8ff	-0.013536691
204	0xbe4b49cb	-0.19852369
205	0x3dc1a4a9	0.094552346
206	0xbe9a9b35	-0.3019654
207	0xbf4a8751	-0.79112726
208	0x3dbf6053	0.09344544
209	0xbedf5b42	-0.43624312
210	0x3d9d75ac	0.0768846
211	0xbd22f91a	-0.039788343
212	0xbea58919	-0.3233116
213	0x3e1f74d9	0.15571918
214	0xbe956b0f	-0.29183242
215	0x3d209eb7	0.039213862
216	0xbea2b98f	-0.31782195
217	0x3c696237	0.014244608
218	0xbe83c1f9	-0.25733927
219	0x3d8608fb	0.06544682
220	0x3d3a1e55	0.045439083
221	0x3d4edaf6	0.050501786
222	0xbd72e130	-0.059296787
223	0x3ded1bbf	0.11577558
224	0x3b82b20e	0.003988511
225	0x3d2fb646	0.04289844
226	0xbde77146	-0.11300902
227	0xbe808f30	-0.25109243
228	0xbdd231db	-0.102634154
229	0x3d42474f	0.047431286
230	0xbda29059	-0.079376884
231	0xbecc7f94	-0.39941084
232	0xbda40cab	-0.08010229
233	0xbdfab88c	-0.12242231
234	0xbdc1f5c8	-0.09470707
235	0xbd44e162	-0.048066504
236	0xbed31e8f	-0.41234252
237	0xbe08152a	-0.13289323
238	0xbd8add8e	-0.067805395
239	0x3db19148	0.08670288
240	0x3cd6770e	0.026179817
241	0xbe380cfe	-0.17973706
242	0xbe75a8b8	-0.23990142
243	0x3d587a7e	0.052851193
244	0x3d88b506	0.066751525
245	0xbe4c7d14	-0.19969589
246	0x3cc58dba	0.024115432
247	0xbdf77dcf	-0.12084543
248	0x3d6124f5	0.054966886
249	0x3dbb2e70	0.091397166
250	0xbf01ed93	-0.50753134
251	0xbdc078fd	-0.09398077
252	0x3d76e89b	0.060280424
253	0x3c8aaa82	0.016927008
254	0x3cef09cb	0.029179474
255	0x3d91f173	0.07126131

fc2.bias f4 [40]
0	0xbe442883	-0.19156079
1	0xbe260e4f	-0.16216396
2	0xbd858c1a	-0.06520863
3	0xbdaaf2ea	-0.083471134
4	0xbdf0d08d	-0.11758528
5	0xbe2d2b37	-0.16911016
6	0x3e7637a1	0.24044658
7	0x3ddec147	0.108767085
8	0x3dc13c23	0.09435298
9	0x3c2ea709	0.0106599415
10	0xbe147383	-0.14497189
11	0x3d68a0ac	0.056793854
12	0xbca805a9	-0.020510511
13	0x3ee7c7cb	0.45269617
14	0xbe152ec9	-0.14568628
15	0xbdd56aa6	-0.10420732
16	0xbd3e36a8	-0.046438843
17	0xbe182b59	-0.14860286
18	0x3e2a77b7	0.1664723
19	0x3e1f7e6e	0.15575573
20	0x3e135c95	0.14390786
21	0x3e1cbe9a	0.15307084
22	0x3e1210c9	0.14264216
23	0x3d598cb3	0.053112697
24	0x3da48154	0.0803248
25	0xbd564dac	-0.052320167
26	0x3e38db84	0.18052489
27	0xbd527608	-0.051382095
28	0x3e137785	0.14401062
29	0x3b1441a6	0.0022622137
30	0x3e75ecfc	0.24016184
31	0x3de9fd47	0.11425262
32	0xbe307a1e	-0.17234084
33	0xbd0c779d	-0.03429376
34	0xbca13ecc	-0.019683264
35	0xbe384f89	-0.1799909
36	0xbe3718e2	-0.17880586
37	0x3cdf0649	0.027224677
38	0xbe46672c	-0.19375294
39	0xbda2a610	-0.0794183
