nettalk_state_dict.pt (torch, 522962 bytes, 5 tensors)

embedding.weight f4 [34, 128]
000000 0a e2 74 be f6 d0 cd be 03 ab 04 be 77 66 f5 be
       -0.23914352 -0.40198487 -0.12955861 -0.47929737
000010 e8 58 1a bf ef d2 fa 3c 02 6b 91 bd f7 c2 92 3d
       -0.6029191 0.03061816 -0.07100488 0.07166093
000020 84 c2 2c 3e ce 35 e5 3e 6f cc f8 3e 42 ba da bd
       0.16871077 0.44767612 0.4859347 -0.10680057
000030 8d ab b5 bc b8 e1 59 3e 99 e1 4c be e1 55 41 3f
       -0.022176528 0.21277511 -0.20007934 0.75521666
000040 98 f6 3b 3f a3 66 6d 3e a9 bb 24 bf 42 40 a0 3f
       0.7342315 0.23183684 -0.64348847 1.251961
000050 d1 2d f0 bd 5d 40 8a be 90 82 0e 3e df fa 72 be
       -0.11727489 -0.2700223 0.13916993 -0.23728512
000060 56 ea 01 3f e8 74 6a 3e e7 19 10 3f 03 79 89 3e
       0.50748193 0.22896159 0.56289524 0.26850137
000070 73 de 66 be 36 b4 60 be 83 3c 02 bf f0 2e a6 3e
       -0.22545795 -0.21943745 -0.50873584 0.32457685
000080 53 60 87 3e b3 97 a0 bd da 3c 01 3e f5 db 64 3f
       0.26440677 -0.07841434 0.1262087 0.8939813
000090 81 35 c6 3e 01 03 fd 3d 36 02 8f be 68 e7 a7 be
       0.38712695 0.123540886 -0.27931374 -0.32793736
0000a0 fb b2 5c bf cf ca 0b be 4e dd c5 3e 57 77 19 be
       -0.862106 -0.13651584 0.38645405 -0.14986931
0000b0 8b 92 49 be a7 aa 84 3e bb 03 51 be 6a 10 03 bf
       -0.19684808 0.25911447 -0.2041158 -0.5119692
0000c0 28 ca fa be 73 e7 5b be e4 29 d0 3e 13 f0 8b 3e
       -0.48982358 -0.2147501 0.4065696 0.273316
0000d0 f3 3f 1f bf c0 ae 10 be 02 a1 1c bf ef a0 03 3e
       -0.62206954 -0.14129162 -0.6118318 0.1285436
0000e0 8a 1d b3 3d 7f 22 0f 3f 0d da 6a 3e 6f fa 20 3f
       0.087458685 0.5591201 0.22934742 0.6288213
0000f0 67 14 3f 3e 47 f3 d8 3e 51 9b 90 3d a6 3b ba bd
       0.18660127 0.42373106 0.07060874 -0.09093408
000100 c1 cd 36 3e 76 87 ee 3e e2 fb 2b be 67 86 c5 bf
       0.17851926 0.46587723 -0.16795304 -1.5431641
000110 0d bb 93 3e d4 19 e0 bc 7c dd bd bd 33 39 20 be
       0.28853646 -0.027356066 -0.092707604 -0.1564682
000120 50 15 9d bd 6a fd 9c 3e 70 6f 58 bd 62 e6 c2 3f
       -0.07670081 0.3066209 -0.05284065 1.5226557
000130 92 b1 42 be 49 ed 87 3d 66 ce 52 bf ca 7d 09 3e
       -0.1901305 0.066370554 -0.8234619 0.13426891
000140 d8 50 b8 3d 12 31 dc 3e d9 bf ec be fe 05 02 be
       0.08999795 0.43006188 -0.46240118 -0.12697598
000150 7c a0 f7 bd 5b 22 56 bd 0d 2c c4 3e 55 51 c6 bd
       -0.12091157 -0.052278858 0.38314858 -0.096834816
000160 7c bc 17 3f df 74 48 be 69 6e a7 3e 03 45 ca 3e
       0.5927198 -0.19575833 0.32701424 0.39505777
000170 bb 29 93 3e 78 33 7a 3e 92 34 85 be e2 d1 ab be
       0.28742775 0.24433696 -0.2601667 -0.33558565
000180 89 94 3c be 0a fe 13 3f 0d a1 fd bd 19 aa 12 3f
       -0.18416037 0.5780951 -0.123842336 0.572908
000190 b2 4a 05 3f c4 f0 32 bf 17 ee 10 be 64 17 96 3d
       0.520671 -0.6989863 -0.14153324 0.0732868
0001a0 f6 b4 0d 3f 7d 10 ec 3e 68 4d b7 3e cf 91 b7 be
       0.5535425 0.4610633 0.35801244 -0.3585343
0001b0 d2 67 ff bd ab a2 79 bd 14 19 81 3d ae 62 f0 3e
       -0.12470974 -0.060946148 0.063036114 0.46950287
0001c0 38 bb 2f 3e 03 0b 5e 3d ff a0 39 3e 05 1a 9f be
       0.17161262 0.05420972 0.18127821 -0.3107454
0001d0 8d 74 24 be 0a 00 18 bc bb 62 80 bb 6a 76 b9 3d
       -0.16060086 -0.009277353 -0.0039180196 0.09055789
0001e0 eb e9 c5 3d 15 6c ed bd f5 54 a5 3f b4 00 2f be
       0.09663757 -0.11592881 1.2916552 -0.17090112
0001f0 87 26 29 be b3 1c be bd 95 75 8a bd a9 ec 93 3e
       -0.16518603 -0.09282818 -0.06760708 0.28891495
000200 b8 d8 3a be 02 e7 f8 be b2 5c a4 3f 3f 6d a5 3f
       -0.18246734 -0.48613745 1.2840788 1.2923964
000210 28 fe d2 be 69 74 0c bf 4c b9 af bd 54 fa ba 3f
       -0.4120953 -0.5486513 -0.085802644 1.4607644
000220 5d ac 9c bf 1e 8a dd 3e 4e 35 9f 3e f8 21 90 3e
       -1.2240101 0.43269438 0.31095356 0.28150916
000230 09 7d dd be bb e6 8d 3f d5 e6 59 3f a9 a1 0f 40
       -0.43259457 1.1086038 0.85117847 2.244242
000240 98 40 21 3f f8 fa 9d 3f 24 a4 82 3d c8 02 ac 3f
       0.6298919 1.2342215 0.063789636 1.3438349
000250 19 76 07 3f 7f da c8 3e e2 b8 92 bd 3c 76 91 be
       0.5291458 0.392292 -0.0716417 -0.28410518
000260 1b 5b 42 be 60 21 46 be 33 e9 b3 bf 78 e2 4a 3f
       -0.18980066 -0.19348669 -1.4055542 0.79251814
000270 dd d7 7c bf a0 26 f3 3e 1c 09 a1 bf e6 fd 0d 3f
       -0.9876688 0.47490406 -1.2580905 0.55465543
000280 50 16 f9 3f 41 51 25 3f 2f 6a ba bf 0c 16 1c 3f
       1.9459934 0.6457711 -1.4563655 0.6097114
000290 57 5d 5a 3f 4c 28 87 be fa a1 17 bf 0e c3 57 bd
       0.85298675 -0.26397932 -0.5923153 -0.052676253
0002a0 be e4 b9 3e 87 71 9b 3e 5f a2 5f 3f cc 6d 39 3f
       0.3630733 0.30360052 0.87357134 0.7243316
0002b0 62 6a 0a bf 27 3a de be cd 47 9c bf 21 60 7e be
       -0.5406858 -0.43403742 -1.2209412 -0.24841358
0002c0 d0 66 4c 3d f3 d1 b4 be f9 d0 db bd 0e 17 33 3f
       0.049902737 -0.3531643 -0.10733218 0.69957054
0002d0 e8 98 a3 bf 34 8f 03 bd f7 9b 87 be c2 fd b6 3e
       -1.2781038 -0.03211899 -0.2648618 0.35740477
0002e0 f2 5e 41 3f bc ce 7a 3f 82 82 a1 3d ea 9c 68 3f
       0.755355 0.979717 0.078862205 0.9086443
0002f0 07 47 9d be 4b 92 79 3e eb 30 a3 3f 5d ff fa 3e
       -0.30718252 0.24372213 1.2749304 0.49022952
000300 b2 37 82 be 50 68 b4 bf 5c 2b 34 bf df b7 b4 bf
       -0.25433117 -1.4094334 -0.7037866 -1.4118613
000310 4f f5 7d bf ba 25 dc be a1 ea fa 3c ee 7d e1 be
       -0.99202436 -0.42997533 0.030629458 -0.4404139
000320 8b a2 19 bf 03 1d 67 3f 6f 49 93 be 0c b9 86 3f
       -0.60013646 0.90278643 -0.28766963 1.0525222
000330 ab 0f f3 3f 51 d6 2a bf d5 dc 42 3e 14 de a9 3f
       1.8989156 -0.6673327 0.19029553 1.3270898
000340 2c 7c 9e 3f f6 c5 20 3f 23 09 87 be 26 b5 ad 3f
       1.2381644 0.62802064 -0.26374158 1.3570907
000350 98 75 8d bd 9a 34 36 be c6 ff d1 3e 9d d8 86 bf
       -0.06907195 -0.17793503 0.41015452 -1.0534855
000360 c9 ed 22 bb b5 88 aa bf eb 74 82 3f 6b 4c 8b 3f
       -0.002486097 -1.332297 1.019193 1.0882696
000370 c2 34 d9 3f 2e fe 52 3f 50 b6 cd be 8e aa 8b 3d
       1.6969225 0.824191 -0.40178156 0.0681964
000380 3c 84 69 3f 78 d2 86 3f ab a8 a8 3d 92 e6 62 be
       0.912174 1.053298 0.08235296 -0.22158268
000390 8e 02 a6 3f a5 55 a9 bd 69 64 0a 3e 4a 8f a1 bd
       1.296953 -0.082682885 0.13514866 -0.07888658
0003a0 48 f1 d5 3f 45 b8 33 3f c1 6e 00 40 e9 f0 d1 be
       1.6714258 0.7020305 2.00676 -0.41004112
0003b0 67 eb 21 3f 27 68 7f 3f 13 00 0f bf b4 15 4e bf
       0.6324982 0.997683 -0.5585949 -0.80501866
0003c0 4d c6 08 bf 24 f9 86 bf 8e 9a 03 3f 3b 54 f3 3f
       -0.5342758 -1.0544782 0.51407707 1.901008
0003d0 20 69 39 3f b6 5a cb 3e 94 30 0e be 90 ac 8c bf
       0.72426033 0.39717644 -0.13885719 -1.0990162
0003e0 21 ae 37 3e be e8 f7 3f 79 d2 63 3e 5e 25 ce bf
       0.17937519 1.9367902 0.22248258 -1.6105154
0003f0 e6 d3 13 bf 6a 0d 9f bf 1a 02 a2 3e 4c 49 0d 3f
       -0.57745206 -1.2425969 0.31642228 0.5518997

fc1.weight f4 [128, 896]
000000 ad f3 0b bd 7e 0e f6 bd e4 da 78 bc 8a f9 26 bd
       -0.034167934 -0.12014483 -0.015188906 -0.040765323
000010 51 4a 61 3c c7 bc b9 3d ef f5 4c bd 41 6a 19 3e
       0.013750629 0.090692095 -0.050039228 0.14981939
000020 71 7c 03 3e 3d 2e 6c 3d 9b 99 3e 3e d9 93 af 3d
       0.1284044 0.057661284 0.18613283 0.085731216
000030 ca 62 08 3e e5 6e 3f 3d 43 be ba 3d 6c 0a e6 3c
       0.13318935 0.046736617 0.09118321 0.028081141
000040 67 d5 15 3c b8 b2 41 bd 81 64 b1 3c c5 e6 9c 3a
       0.009145117 -0.04728958 0.02165437 0.001197063
000050 f9 4b 91 3d 33 1f ae 3d 4c 80 d7 bd 3a 7e 86 3b
       0.07094569 0.085020445 -0.105225176 0.004104403
000060 27 02 af 3d bc 8a 2d 3e 47 f0 a6 bd 21 40 40 bd
       0.085453324 0.16947454 -0.08151298 -0.046936158
000070 ac c2 b2 3c 0e 7a 83 3c ce 4f 85 3d 7d b2 9f 3d
       0.021821342 0.016049411 0.06509362 0.07797716
000080 10 0d 82 bd d6 da 17 3e 97 3a c3 3d bc 1e 8f 3c
       -0.06350148 0.14829573 0.095326595 0.01747071
000090 7f fd ed bd df 53 bb bd 4d 37 ff bd 9f 26 3f 3d
       -0.11620616 -0.091468565 -0.1246172 0.04666769
0000a0 24 30 82 bd fd 35 81 bd 30 cd cd 3d 43 e4 03 be
       -0.06356838 -0.063091256 0.10048902 -0.12880044
0000b0 40 5c fd 3c 8a 7d 28 bc 5c 29 c7 3c 15 c7 65 bd
       0.030927777 -0.010283837 0.024311714 -0.056098063
0000c0 9c 34 87 bd f2 72 3e 3d b4 d4 6d bb 0c ac 29 3d
       -0.06601831 0.04649634 -0.003629011 0.041423842
0000d0 aa 56 4b bd 07 5c 10 bd 8e 8a ee bd 43 1b 97 bd
       -0.049643196 -0.035244014 -0.11647521 -0.07378247
0000e0 a6 2b 65 be 74 da 02 3d a6 a6 91 3c 17 bb 4b be
       -0.22379932 0.031946614 0.01777966 -0.19895588
0000f0 f2 32 2c 3e 68 d6 2c 3d ea b3 0e be ed 56 ac bd
       0.16816309 0.04219666 -0.1393582 -0.08415017
000100 9e bf 11 3e ed 04 70 3d ee b8 73 3d ff 50 a1 3a
       0.14233252 0.058598448 0.059502535 0.0012307464
000110 c9 2a 54 be 01 40 d4 bd 6a 02 bd bc b0 cf 69 3d
       -0.20719446 -0.1036377 -0.02307244 0.05708283
000120 3a cb 0b bc ea 8e 0a 3d 55 7c 76 3d a7 d8 c5 3d
       -0.00853234 0.0338277 0.060177166 0.09660464
000130 48 d2 7e 3d 03 ce 30 be da 07 02 bd d8 e0 1e be
       0.06221226 -0.17266087 -0.03174577 -0.15515459
000140 53 de d0 3d f7 23 94 3d 01 01 d2 bb 4b a0 b3 bd
       0.10198655 0.07233422 -0.006408811 -0.08770808
000150 a7 c2 01 bc ac 11 fc 3d 63 3d df bc ae 62 3c bd
       -0.007919944 0.12308058 -0.027250951 -0.045992546
000160 5c 54 9e bd a6 54 00 3c f9 fc 8c 3d 8f b3 01 3d
       -0.07730934 0.007832682 0.06884188 0.03166538
000170 3e 1f 2d be e9 07 8b bd bf 44 ff bd 81 02 a5 3d
       -0.16906449 -0.06788618 -0.12464284 0.08057118
000180 d0 d9 75 3d 40 53 ce 3c 5e af 23 3e 35 e3 11 3d
       0.060022175 0.025186181 0.15984866 0.035617072
000190 19 e1 20 3e e8 b0 ec 3d 2b 6f 0c be f9 67 32 bd
       0.15710868 0.1155718 -0.13714282 -0.043556187
0001a0 a3 da d8 bc f8 6b ca bd eb 93 cd bd f3 7a bf bd
       -0.026471442 -0.09883875 -0.10037979 -0.093496226
0001b0 44 ba 54 3d 77 0c a1 bc 8a 52 dc ba 5d fb 3f 3d
       0.05193545 -0.019659264 -0.0016809267 0.046870578
0001c0 11 b8 a1 3d f5 40 b6 3d bc 8b a7 3d 70 91 a0 3c
       0.07896436 0.08899108 0.08180949 0.0196006
0001d0 af f6 6b 3d 6e 43 d1 bd 70 36 f4 3a 77 12 9f 3d
       0.057608303 -0.10217939 0.0018631946 0.07767194
0001e0 63 13 dd 3d 96 0b 21 bd 5d 8c d3 bd ce 74 1a be
       0.10794713 -0.03931769 -0.103295065 -0.1508362
0001f0 10 fb d0 bd 28 1d c7 bd d1 92 8a bd 6f 66 a7 3d
       -0.10204136 -0.09722358 -0.06766284 0.081738345
000200 09 45 a1 bd 75 22 2c be 7f e4 e6 bd c5 cc 3f be
       -0.078744955 -0.1681002 -0.11274051 -0.18730457
000210 0a 55 4b 3d ff b4 9d bd d6 70 73 3c a5 af 0f 3d
       0.049641646 -0.07700538 0.014858445 0.035079617
000220 e6 97 09 3e 0a 19 f2 bb 20 bd 4f 3e b7 ba bc 3d
       0.13436851 -0.007388239 0.20286989 0.092153005
000230 f6 b6 ba bc 55 4d a4 bd 57 c6 cd bc 51 46 63 3d
       -0.02279232 -0.080225624 -0.02511899 0.05548698
000240 f9 a3 03 3e 43 d8 ce bc d6 ee 00 be 9c 78 2d bd
       0.1285552 -0.025249606 -0.12591109 -0.04235135
000250 ee cd a9 bd 7b 35 e6 3d e9 48 4d bd 08 3d 18 be
       -0.08291231 0.11240669 -0.05011836 -0.14867032
000260 6a 14 6b 3e aa c4 3b 3e 8c ce 43 bd 6a 5f 73 3d
       0.22957006 0.1833674 -0.0478044 0.059417166
000270 49 77 ef bb 7d 91 cc bc 59 76 98 3d 84 40 5c 3e
       -0.007307921 -0.024971718 0.07444448 0.21508986
000280 b2 50 a3 bc 2f 1c 66 3d 21 bc eb 3d 0d c1 4a bc
       -0.01993594 0.05617922 0.11510492 -0.012375128
000290 9e fe 67 3d 00 e1 29 be 75 fa df bd ac 50 40 3d
       0.056639306 -0.16589737 -0.10936443 0.046951935
0002a0 99 1c aa 39 b0 3c f5 3d 94 d1 33 3d 12 78 14 be
       0.00032446234 0.11974466 0.04390104 -0.14498928
0002b0 8b 5d aa bd c7 13 5d bd ab 91 94 bd a5 be 6d be
       -0.08318623 -0.05397394 -0.072543465 -0.23217256
0002c0 4d 1c 0d be 91 ea c1 bc 83 f2 43 38 63 ef 88 bc
       -0.13780327 -0.02367142 4.671748e-05 -0.016715711
0002d0 95 4c 50 bd 91 c4 fe bc 27 f7 6d be da 77 c5 3d
       -0.050854284 -0.03109959 -0.23238812 0.096420005
0002e0 6b 72 45 be d8 36 28 3d be 17 1d be 9c dd b9 bc
       -0.19281928 0.041067928 -0.15341088 -0.02268868
0002f0 3d 85 8c bb 83 82 41 3e 1f ea 9d be 75 4b 4f 3d
       -0.004288344 0.18897443 -0.30842683 0.05060907
000300 c0 35 bc 3c 79 97 7f bc 7e b7 94 bd 7b 7f f1 bd
       0.022974849 -0.015600079 -0.07261561 -0.11791893
000310 49 c6 03 be 7d 32 31 be 73 09 1c bb b0 d7 ed bc
       -0.12868609 -0.17304416 -0.0023809343 -0.029033512
000320 5d 55 72 bd 95 ef 6a bc 6d 25 81 3d 18 d1 09 3e
       -0.05916344 -0.014339347 0.063059665 0.13458669
000330 df 63 dd bd bd 2b 1a ba 69 5e d5 bc ba 42 35 be
       -0.108100645 -0.00058811513 -0.026045995 -0.17701235
000340 46 8c 47 ba c6 32 f9 3d 9d e8 d1 bd d8 da 12 3d
       -0.000761215 0.121678874 -0.102494456 0.035853237
000350 ec 51 c9 3c ca 59 18 3d 2e d9 81 bc 7f bf 0b bd
       0.024575196 0.037195005 -0.01585063 -0.03411817
000360 2a d9 32 bd e0 c0 bb bd 25 64 bc 3d 31 a7 09 bb
       -0.043664135 -0.09167647 0.091987886 -0.0021004195
000370 c7 0e d9 bd f2 c6 33 bc 3f eb 93 3d 98 0c 20 bd
       -0.10598522 -0.010972725 0.07222604 -0.03907451
000380 b3 cd 2d 3e 31 e6 ce 3d 45 17 bd 3d 98 b7 d5 3c
       0.16973 0.10102499 0.09232954 0.02608852
000390 31 eb 11 3e a7 82 42 bd 15 97 68 be 52 0d d7 bd
       0.14249875 -0.04748788 -0.22713883 -0.105005875
0003a0 2a b7 cd 3d 92 7c 81 be 09 37 54 be a5 8e b7 bd
       0.100447014 -0.25290352 -0.20724119 -0.08962754
0003b0 3c 49 c8 3d 0f eb 58 bd df 08 a0 3d dd 7d 1e 3d
       0.09779593 -0.052958544 0.07814192 0.03869425
0003c0 61 f9 15 3e b3 00 44 bd b2 48 e4 3d bc 8f 4f be
       0.14645912 -0.04785223 0.11146678 -0.20269674
0003d0 69 7b 72 3d 23 62 16 bd d8 75 8b bd 7e a7 0d 3d
       0.059199724 -0.036714684 -0.06809586 0.03458356
0003e0 1f c9 60 3d 81 76 49 bd aa cc 0b bd 67 10 72 bd
       0.054879304 -0.04918528 -0.03413073 -0.059097674
0003f0 3f ee 04 be 7c 3e 62 bd 8c dd 87 bd 00 e1 da 3d
       -0.12981509 -0.05523537 -0.066340536 0.106874466

fc1.bias f4 [128]
000000 9c c3 66 be c8 b7 60 be 86 e7 9e bd 94 a1 4d be
       -0.22535557 -0.21945107 -0.07759003 -0.20081168
000010 72 47 36 bd 40 d0 4a bd b7 bf 29 be 39 d7 51 bd
       -0.04450173 -0.04951501 -0.1657704 -0.051230643
000020 20 29 0c be a7 76 2a be de c5 a7 bd 75 c9 3c be
       -0.13687563 -0.16646825 -0.08192037 -0.18436225
000030 3a 24 ac bd b4 d5 04 be 2d 92 23 be 12 86 08 be
       -0.08405347 -0.12972146 -0.1597373 -0.13332394
000040 21 dd f2 bd 00 2a 1d be ea c4 b4 bd db fb 53 be
       -0.11858583 -0.15348053 -0.08826621 -0.20701544
000050 4c 58 09 be 7c ed aa bd 57 4a 61 bd 38 87 44 be
       -0.13412589 -0.08346078 -0.055002537 -0.19192207
000060 a6 cc 18 be a0 60 66 be 9a c5 0d be 2d cb 3a be
       -0.14921817 -0.22497797 -0.1384491 -0.18241568
000070 7f 53 0f be b8 b0 28 be 27 68 3e be c1 93 3c bd
       -0.13996695 -0.16473663 -0.18594418 -0.046039347
000080 b9 89 d3 3c 09 4e e2 bd 1f 3b 5b be c8 c6 25 be
       0.025822507 -0.1105004 -0.21409272 -0.1618911
000090 64 01 0a be ca 93 4b be 15 3f c8 bd d0 71 06 be
       -0.13477093 -0.19880596 -0.09777657 -0.13129354
0000a0 46 84 b9 bd 83 43 6c be 17 73 19 be 78 7e 52 be
       -0.09058432 -0.23072629 -0.1498531 -0.20556056
0000b0 ef cb 09 be 18 2a 26 be c7 49 0a be 81 81 86 bd
       -0.134567 -0.16226995 -0.13504706 -0.0656767
0000c0 02 61 19 be 1c fe 11 be 18 5d d3 bc 64 20 54 be
       -0.14978412 -0.14257091 -0.025801226 -0.20715481
0000d0 cd a9 eb bc 88 64 10 be 4d dd d3 bd 62 f6 4c be
       -0.02876749 -0.1410085 -0.10344944 -0.20015863
0000e0 b3 07 a7 be 0f 7f 77 be b9 59 0f be 68 03 26 be
       -0.32623062 -0.24169563 -0.1399907 -0.16212237
0000f0 4a f1 d2 bd 00 7d a2 bd 53 44 23 bd 72 7c 4c be
       -0.102999285 -0.07933998 -0.03986008 -0.19969347
000100 87 5e 5c be d2 aa de bd 72 14 5a be 8b ca d1 bd
       -0.21520434 -0.10872425 -0.21296862 -0.1024371
000110 f5 64 be bd 2f fd 02 be 8b 24 b8 bc 83 35 9b bd
       -0.092966 -0.12791894 -0.022478363 -0.07578566
000120 f9 44 3b bc 80 0d 23 be 29 b0 cf bd ac c2 26 be
       -0.011430019 -0.15923119 -0.10141022 -0.16285199
000130 a9 2f 47 be 0c f1 1f be 33 6d 21 be dd 16 85 be
       -0.19451775 -0.15619296 -0.15764312 -0.25994006
000140 e6 61 4b be bc 49 1c be bf 3f 2c be c7 b5 c2 bc
       -0.19861564 -0.15262502 -0.16821192 -0.023768319
000150 3f 64 2e be 13 77 6d be 13 1a 92 bd 59 57 e8 bd
       -0.17030428 -0.23189954 -0.071338795 -0.11344785
000160 01 da dd bc e8 68 f9 bd 4a a5 ee bd a8 a6 ef bd
       -0.027081491 -0.121782124 -0.1165262 -0.11701709
000170 8d b9 44 be 2d e2 5a bd a0 2b 26 be 77 bc 0f be
       -0.19211407 -0.053438354 -0.16227579 -0.14036737
000180 42 35 d0 bc e7 c3 de bd 46 8e 0a be fd 22 2c be
       -0.02541602 -0.10877209 -0.13530836 -0.16810222
000190 5d d8 8e bd dc 63 58 bc 1f b1 0f be 87 00 ed bd
       -0.06974862 -0.013207402 -0.1403241 -0.11572366
0001a0 89 6e 11 be 75 21 55 be 0a 40 1f be f8 0d 8c 3c
       -0.14202322 -0.20813544 -0.15551773 0.017096505
0001b0 7e b8 9b be 22 8c d1 bd 05 41 0f be 91 22 b0 bd
       -0.30414194 -0.10231806 -0.13989647 -0.08600343
0001c0 08 95 8a bd 99 0e 53 be b5 2b 8e be 1d 22 76 bd
       -0.06766707 -0.20611037 -0.2776772 -0.060091127
0001d0 d0 a8 70 be 9d 9f f7 bd a9 76 1e be ab e6 07 be
       -0.23501897 -0.12090991 -0.15474953 -0.13271587
0001e0 87 72 5c be e9 2b 84 be e6 99 88 be 55 b0 00 be
       -0.21528064 -0.2581475 -0.26679915 -0.12567265
0001f0 7a 1a f3 3c f4 da 55 be 66 a2 5d bd c4 eb e8 bd
       0.029675711 -0.20884305 -0.054109953 -0.11373094

fc2.weight f4 [84, 128]
000000 63 88 9f bc 33 c4 d8 bd ca 03 1f be 50 cd 4e 3d
       -0.019474214 -0.10584297 -0.15528789 0.05048877
000010 95 7c 0f 3e e4 fc 87 3c 7e d3 bc bf 9b 65 81 bd
       0.14012368 0.01660008 -1.4752042 -0.06318208
000020 85 1a 35 3d d2 95 25 3c 8f 62 f4 bd 05 c8 51 be
       0.044214744 0.010106521 -0.11932861 -0.20486458
000030 35 5e d0 3d 9d f4 a0 be 74 60 92 bd bf f4 cc be
       0.101742186 -0.31436625 -0.07147303 -0.40030476
000040 9d bb b3 bd d3 81 1d 3e d3 78 d9 bd 6b 00 c2 be
       -0.08776019 0.15381555 -0.106187485 -0.37890944
000050 c0 9c 96 be 54 1e 15 3d 55 1d a8 3c eb 15 cc be
       -0.29416466 0.036405876 0.0205218 -0.39860472
000060 52 66 10 3d cf 6f ab bf f7 23 81 3d 11 4a 7c bf
       0.03525383 -1.3393496 0.06305688 -0.98550516
000070 49 12 d0 be 31 63 64 be 2f cd 8b be 38 c7 81 bc
       -0.4063895 -0.22303464 -0.2730498 -0.015842065
000080 4e 84 fa bc 5d e3 60 bf d6 65 30 bf 3b 2d 50 bf
       -0.030580666 -0.8784693 -0.6890539 -0.81319016
000090 c7 43 42 be 06 65 29 bd 27 e7 0e be 98 c7 a2 bd
       -0.18971168 -0.04135611 -0.13955365 -0.07948226
0000a0 29 5d 4d 3d b6 d8 93 bf b4 9d 6a be ba fb 7a bf
       0.050137673 -1.155051 -0.22911721 -0.98040354
0000b0 d9 50 04 bf 2d ea 15 be 2e 04 09 be 8f 3e 95 be
       -0.51685864 -0.14640112 -0.133805 -0.2914929
0000c0 b4 a2 d9 bd c1 ff c4 3d 37 60 a6 3d f5 40 b5 bf
       -0.10626736 0.09619094 0.0812382 -1.4160448
0000d0 55 d4 42 be bf 97 ef be f0 62 4e 3d 29 40 04 bf
       -0.1902631 -0.4679546 0.050387323 -0.516604
0000e0 ad 4a 42 bf 5c f8 c8 3c 0a 9a 89 bd fc e2 7a bf
       -0.75895196 0.02453249 -0.06718834 -0.980026
0000f0 77 e3 ec bd dd 4e 73 3e d5 17 f7 3b 56 5e b9 bf
       -0.11566823 0.23760553 0.007540683 -1.4481914
000100 9a 85 d0 bf 9a 49 f5 bd 6c c3 90 bf 6e 62 01 bf
       -1.6290772 -0.11976929 -1.1309638 -0.50540817
000110 a1 2b 7b bf d2 07 6c 3d 8f 08 c3 bd 3c 41 78 3d
       -0.9811345 0.057624646 -0.09523117 0.060609087
000120 a8 df c3 bf c7 bb 7b be 86 34 f5 bd d6 2b 08 bf
       -1.530263 -0.2458335 -0.11972909 -0.5319189
000130 19 c5 eb be 53 4d 83 bf ad a3 55 bf 24 d8 8e be
       -0.4604881 -1.0257972 -0.83452874 -0.27899277
000140 a0 f1 0b be 45 75 09 3e 0a b5 78 bf 2b 4d ab 3c
       -0.13666391 0.13423641 -0.97151244 0.02091082
000150 ee fe c4 bf 6b d1 e4 be 6d 7e 89 be 65 f5 36 be
       -1.5390298 -0.44691023 -0.26854268 -0.17867048
000160 02 65 d0 bb 5c d4 c6 be 71 90 92 bd 1e a2 23 bf
       -0.0063596973 -0.38833892 -0.07156456 -0.63919246
000170 d4 86 64 be 6c 19 ce bc 32 e9 9d be cd 5d 0e 3e
       -0.22317058 -0.025158606 -0.30841976 0.1390297
000180 3b e3 d1 bb 18 c9 ec bf 4f 32 85 be ea 37 26 bd
       -0.006405262 -1.8498869 -0.26014945 -0.040580668
000190 5f 5e 16 bf 2d eb 23 3d d0 1b 87 bd 75 77 58 bd
       -0.5873775 0.040019203 -0.06597102 -0.052848298
0001a0 24 62 b2 be bc 2e fa be 54 ff 83 bf 0b 57 8e be
       -0.348405 -0.4886378 -1.0312295 -0.27800784
0001b0 72 e4 ee be fb 80 1e bf 51 47 85 bf 40 de b5 3d
       -0.46658665 -0.6191556 -1.0412389 0.088802814
0001c0 d8 f5 3b be 5e 13 f2 bd a9 94 d5 bd f9 23 dd bb
       -0.183555 -0.118201 -0.10428745 -0.006748673
0001d0 05 16 0d bf 19 bc d6 bf dd e3 aa be 19 48 9c bd
       -0.55111724 -1.6776153 -0.3337697 -0.07630939
0001e0 57 df 87 bf 24 40 60 bf 4c f4 a1 be 78 29 bf be
       -1.0615033 -0.8759787 -0.31631696 -0.37336326
0001f0 fb 88 ba 3d 03 51 b8 bf 20 33 1f 3c ed b5 13 be
       0.09108158 -1.4399723 0.009716779 -0.14424868
000200 53 f8 74 bd 15 8a ab bc cf d5 c8 be 9a d8 83 be
       -0.059807133 -0.020939866 -0.39225623 -0.2575119
000210 55 3a 53 3d 51 3d 1b 3c 90 33 ab be ea 01 d6 bd
       0.0515693 0.009475068 -0.33437777 -0.10449584
000220 cd 14 23 3d d2 c7 d5 bb 34 fb ee 3a e3 e9 da 3d
       0.03981476 -0.0065240646 0.0018232823 0.106891416
000230 84 95 f3 3b 9f be 2a be d2 b2 a8 bd 19 74 6b 3d
       0.007433595 -0.16674279 -0.08237232 0.057483766
000240 07 82 71 3d c3 ef 0c 3b b4 90 86 3c bc fa 8f 3d
       0.058961894 0.0021505214 0.016426422 0.07030246
000250 5d ba b8 3c 73 71 d9 3b 74 58 48 bd c7 8a 8f bc
       0.022549802 0.0066358387 -0.04891248 -0.017522229
000260 76 50 c2 bb 28 c4 68 be f2 91 2d bc 8e c2 81 bd
       -0.005930002 -0.22731078 -0.010593878 -0.063359365
000270 ae 22 83 bd 9c b7 12 be e0 92 06 3e 43 89 95 bd
       -0.06403099 -0.14327854 0.13141966 -0.07301571
000280 cd a0 82 bd a5 ce 46 3d 5a 41 da 3d bb f2 65 3c
       -0.063783266 0.048536915 0.10656996 0.014034922
000290 ec 6c 49 bc 83 2e af bd 35 f0 51 3c 39 ae b3 be
       -0.012294035 -0.08553793 0.0128136175 -0.3509386
0002a0 2c e5 89 bb 1f 29 bf bd e5 33 e0 3d 05 54 62 bb
       -0.0042082276 -0.09334015 0.10947398 -0.0034534943
0002b0 2f 90 36 be 53 a9 5a 3c 57 34 62 bc f5 71 bd 3c
       -0.17828439 0.013346034 -0.013806424 0.023125628
0002c0 17 c1 e8 3d f1 ae 0b bd 7a 77 28 bf 81 36 1d 3d
       0.11364954 -0.034102384 -0.65807307 0.038382057
0002d0 2e ef 65 bc 94 06 8a 3d 3a 51 30 3d e1 69 ea 3a
       -0.014034076 0.06739536 0.043046214 0.0017884338
0002e0 8a 1d 41 3b 97 bc 89 bc 26 1c 5b bd fc 9c 9d 3c
       0.002946707 -0.01681356 -0.05349364 0.019239895
0002f0 e4 a5 be 3d f8 41 d8 3d 06 7e 80 3d 26 42 6b 3d
       0.09308985 0.105594575 0.06274037 0.05743613
000300 b4 f6 43 bd 71 38 82 3d b5 6f 90 bd 04 20 9a 3c
       -0.047842696 0.063584216 -0.070525564 0.018814094
000310 e3 28 ac 3b 94 2a 78 bd 1b 94 f0 bc 7b 8f 12 3d
       0.0052538975 -0.06058748 -0.029367497 0.035781365
000320 26 0a 98 bd 79 0e bb bd 93 eb 0d 3d 46 9e b3 bb
       -0.07423811 -0.0913362 0.03464849 -0.005481514
000330 2c a9 59 bd 0c 29 61 bb ac 98 0a 3e 1f 99 e7 bd
       -0.05313985 -0.0034356741 0.13534802 -0.113085024
000340 fe ae 75 bb 6e cb 6b 3c a0 13 d8 3c c7 db c8 3c
       -0.0037488337 0.014391763 0.026376545 0.02451886
000350 45 61 ac 3c 53 59 15 3e de e0 f4 bc 48 f3 60 be
       0.021042475 0.14584856 -0.029892381 -0.21967804
000360 a7 1f 2b bd 2f fe 99 3d dd cc ff bd e2 17 ac bc
       -0.041778233 0.07519185 -0.124902464 -0.021007482
000370 3c 7b 04 be 08 e4 8f 3d 39 ff fe bb e9 1a b9 be
       -0.12937635 0.070259154 -0.0077818898 -0.36153343
000380 99 93 d3 3c 30 73 4c be 85 f8 54 bd 65 52 fd bb
       0.025827216 -0.19965816 -0.05199482 -0.0077307695
000390 16 dd 9b bd 8b f5 1d 3c d2 ec 21 bd 49 b5 d6 bd
       -0.07610528 0.009641062 -0.03953249 -0.10483796
0003a0 99 64 ee bc eb 4d 53 bd 21 c1 42 3d 52 54 7c 39
       -0.029100703 -0.05158798 0.047547463 0.00024064005
0003b0 fe 5f 9b bd f3 fc ac bd 58 0d 87 3d 42 e3 6f 3c
       -0.075866684 -0.08446684 0.06594342 0.014641585
0003c0 9e b8 82 3d c2 63 1d 3d c9 6c f8 3d 2b 3a 93 be
       0.06382869 0.038425215 0.12130124 -0.28755316
0003d0 4f 57 53 be 89 35 6b bb 0c 4a ed bc e6 48 42 bd
       -0.20638774 -0.0035890064 -0.028965972 -0.047432803
0003e0 54 71 10 bd e5 39 36 be e7 1b 35 3e 26 51 b8 bc
       -0.035264328 -0.17795523 0.17686425 -0.022499632
0003f0 e2 ef 6b 3d 62 a7 7d 3d 4e b8 c5 bd 32 0e d5 bc
       0.057601817 0.061927207 -0.09654294 -0.026007745

fc2.bias f4 [84]
000000 9a 2b 23 3c bb dd 39 be 47 51 1a be c7 c9 5c bd
       0.009959126 -0.1815099 -0.15070067 -0.053903367
000010 fa 41 91 be f1 73 3b be 41 9e eb bd 39 ed 61 bd
       -0.2837065 -0.18305947 -0.11504794 -0.055157874
000020 f3 e6 36 be d9 bb cc bc 19 86 44 bd 07 ce 07 3e
       -0.17861538 -0.024991916 -0.047979448 0.13262187
000030 cb 98 31 3e 90 b8 23 3d f9 f6 41 bd ac 37 dd ba
       0.17343442 0.039970934 -0.047354672 -0.0016877553
000040 51 a5 3c be ae 80 a3 bd 7d b8 a7 3d d1 68 2c 3e
       -0.18422438 -0.07983528 0.08189485 0.1683686
000050 17 56 9c 3c 9a 04 13 3e 46 e5 9e 3c 71 d6 58 be
       0.01908402 0.14357224 0.019396435 -0.21175553
000060 5b 39 aa bc f7 c1 39 be bb dd 37 3e 0b c9 bc bd
       -0.020779302 -0.18140398 0.17955677 -0.092180334
000070 f3 6f a3 3d e2 e2 90 be 57 3d 54 3e 94 2a bc bd
       0.07980337 -0.28298098 0.20726524 -0.09187809
000080 eb 4f 86 3e ed 30 44 3d c4 03 23 bd e9 f9 c1 bd
       0.26232848 0.04789822 -0.039798513 -0.09471495
000090 67 ee ff bd 9a 72 b8 bd 45 00 2d be 70 17 d2 bc
       -0.124966435 -0.090062335 -0.16894634 -0.025645941
0000a0 23 bd 85 be ff 67 ff 3d 6b e2 14 3c 2b be 44 3e
       -0.26120862 0.124710076 0.009087185 0.19213168
0000b0 fe b1 90 3e a2 0c a8 3e 5d 46 50 bd 40 1d 85 bd
       0.28260797 0.32822138 -0.050848354 -0.064997196
0000c0 44 70 2b 3c 51 a0 27 bd 67 f7 a9 3d 36 7c 59 3d
       0.010463778 -0.040924374 0.082991414 0.053096972
0000d0 4d 85 bb 3d 37 30 8b 3e 5e f7 4a 3d c1 6a 01 3e
       0.091562845 0.27185223 0.049552314 0.1263838
0000e0 62 4b 93 3d 51 26 8c 3e eb b0 28 3d 3c 68 4e bd
       0.071921125 0.27372983 0.041184347 -0.050392374
0000f0 34 d7 4b bd f6 f3 02 be fe 3f 28 bd ba 78 63 bd
       -0.04976578 -0.12788376 -0.041076653 -0.055535056
000100 2f 70 bd bd 01 87 83 3d 62 3b 47 3d a0 21 e9 3d
       -0.09249913 0.06422234 0.048640616 0.113833666
000110 ae 1f 76 3c 3c f0 3e be 7d c4 37 be 37 45 d9 bd
       0.015022201 -0.1864633 -0.17946048 -0.10608905
000120 61 d9 5b be 01 a7 1d be a8 72 d4 bd 31 dc 55 be
       -0.21469642 -0.15395738 -0.103734314 -0.20884778
000130 4e 98 51 be 62 07 ef 3d 9d b0 83 bd 66 23 b7 3d
       -0.20468256 0.1167133 -0.06430171 0.089422986
000140 93 67 c3 bc 4b ef 0b 3e ed 92 fe 3d 57 8c a9 3c
       -0.023853099 0.13665502 0.124303676 0.020696802
