nettalk_state_dict.pt (torch, 522962 bytes, 5 tensors)

embedding.weight f4 [34, 128]
00000000: 17ef 823e 5896 f23d 1bec e1be f899 86bf
00000010: 0f46 293f 0cae 9f3f 1097 9fbf a001 293d
00000020: 78ef a53f 6d41 6f3d b768 85bf be1e 8ebf
00000030: f5fc 2fbf 32ce 57be a44f 2cbf aee6 95be
00000040: 1d5f 503f 03d8 84be 5000 b2bf 199e a3bf
00000050: dde6 703e 718a 2f3e 020d 103e 70e1 223f
00000060: b838 67be 56e1 513f 4179 dfbf 10c7 55be
00000070: ccda 47bf d960 4abf 36e4 2e3f ad7f 8a3e
00000080: 8949 2e3c 4443 8b3e 2fbf 923e 9fa4 e2bf
00000090: 95cb e43e c9b9 e33e ebe5 9d3e 5dfe 0140
000000a0: 2ea7 7ebf f258 04bf fb2a c0bf bc49 89bf
000000b0: d70e ff3f fe6a dabe de57 1ebf 6375 b0bf
000000c0: eb5d 213f 0c2c 9dbf f46b a4bf c635 5dbf
000000d0: 82b1 52bf 37fc 5c3f f6d2 aebf 0110 303e
000000e0: 5eed ee3f cd7e cd3e 49f7 eebd b13c 4fbf
000000f0: da0e d63e 3ab5 2fbf 78ac d43f d513 0dc0
00000100: 3901 d7bf 26a4 a63e cf15 51be 425d 4c3f
00000110: 5f64 0cc0 1ef5 d0be 872e 47bf f367 b43f
00000120: b6d6 b43d e8be 60bf 103a c0be 4d33 ce3f
00000130: 62c9 83bf 91c6 b1bf 4887 123f 1d57 54be
00000140: 5fd0 c2bd 7598 e13f 5f75 0c3f cadd e2bd
00000150: b109 543f 8e56 b7bf bc65 5bbe ff1e 65bf
00000160: 6cab 12bf dedb 2bbf f3b7 4ebc a6ee 853f
00000170: 7f6e 953f 4116 3d3f 93f7 83bf 5b9b 783f
00000180: 98bc b2bf f97b 283f e4d3 303f 0a2f 873f
00000190: e555 28bd d699 ad3f 222b efbe 7df6 07bf
000001a0: 3eec cd3f 3ba7 9abf 873d e0bf 493b 80bf
000001b0: 0cbf 9dbf 02b2 5dbf 5238 fcbd 50eb 16bf
000001c0: f712 99bf ae72 0a3f d029 ce3f 1efb 9cbf
000001d0: e259 843e f706 89bd cf55 af3d 0fc4 0540
000001e0: 4ddb bebe f262 843f 2ee1 db3e b549 283f
000001f0: 56e7 16bf 73a1 a63e b91f 10c0 4d22 36bf
00000200: d159 253e 01f0 dabf a3fc 20be 189f b0be
00000210: 9f0d ac3f 607e cbbf 1d3b 2ec0 bf9b 8dbe
00000220: e426 9dbe 69bc 15bf 4712 3ebf 1e59 73bf
00000230: 4050 d2bf ba9f 9bbe e13d 333f 6ca9 bfbf
00000240: 06d6 13bf ba1a 9e3e 6820 9dbd c15e 9f3e
00000250: 9563 1f3f 0adc 07bf 2c12 a53f 7a67 acbe
00000260: abd3 923f 6db6 4b3d f132 ec3d c01f 0c40
00000270: 418a 983f bc22 bb3d 2bef 37b9 a1d5 393f
00000280: b2d6 a13f f90d 77bf c3f1 8b3f f03c 06bd
00000290: 0dca 823f 24af 63bf 9813 3dbf b6d5 a1bf
000002a0: 80fa 63bf 8eb6 5dbf 1b69 9fbf a034 f93f
000002b0: de2f 6e3f 957e 053f 0d6a c63f c853 f13e
000002c0: 1ed7 6b3f 3781 9ebf 9029 0940 0b0b d4bf
000002d0: 83d0 9240 6ef0 1c3f 3449 403e db26 8f3f
000002e0: 6dc4 95bf 4f39 3fbf 617e 853f e8a2 27c0
000002f0: ceec 6c3e 3f5c cdbd 06a9 8c3f 62ac dcbe
00000300: a6ad dfbf 5720 0b40 2f63 46bf 0251 843e
00000310: 243f 51c0 2d97 c93d fa48 0c3e a93c 073f
00000320: 1d02 51bf 3a3d 1abe 7feb 2ebc 34df 28bd
00000330: acad f63c 0512 c2bf c791 13c0 a7b5 853d
00000340: dcd2 9a3f 3550 dfbf 05a2 edbf e77b 4d3f
00000350: 7c1c 27bf 9521 233f 869a 91bf b95b 673e
00000360: 4e85 b4bd 9781 54be 35fd 7a3e 6128 0c40
00000370: b33c 743f f275 2cbf 265b d93e d882 b5be
00000380: a226 913e a8aa c6bf f043 443f 9e47 05c0
00000390: 2e14 14bf 5f1b aabd e37c 26bf 5211 e13e
000003a0: c323 bf3e b829 f4be d77d e5bf 98a4 5f3f
000003b0: f4d4 313f d61b 9dbd 47f1 1e3f 772e a93e
000003c0: 939b c63e 4054 21be 763a 3fbd 4c7e d53b
000003d0: fe1c 5abf cc1e 3dbf ef75 e03f ff28 943f
000003e0: 3297 5ebf 41b4 5a3d 0840 21bf aad6 0a40
000003f0: 2a46 493f b8e2 ee3d 3ebe babf 6bcb 4abf
0.25573036 0.11845082 -0.44125447 -1.0515738 0.66122526 1.247499 -1.2467976 0.041261315
1.2963705 0.058412004 -1.0422581 -1.1103132 -0.68745357 -0.21074751 -0.6730902 -0.29277557
0.8139513 -0.25946054 -1.3906345 -1.2782623 0.23525567 0.17142655 0.14067462 0.6362524
-0.2258023 0.8198446 -1.7458879 -0.20876718 -0.7806823 -0.7905403 0.6831697 0.27050534
0.010637649 0.27199757 0.28661487 -1.7706488 0.4468657 0.4447768 0.30839476 2.03115
-0.99473846 -0.5169822 -1.5013117 -1.0725627 1.9926404 -0.42659754 -0.61852825 -1.3785824
0.6303393 -1.2279067 -1.2845445 -0.86410177 -0.82302105 0.8632235 -1.365813 0.17193605
1.8666189 0.40135804 -0.1166826 -0.8095198 0.41808206 -0.68635905 1.6615133 -2.2043355
-1.6797248 0.3254711 -0.20418476 0.798298 -2.1936262 -0.4081201 -0.7780537 1.4094223
0.08830015 -0.877913 -0.37544298 1.6109406 -1.0295832 -1.3888723 0.5723767 -0.20736356
-0.095124 1.7624651 0.54866594 -0.11077459 0.8282729 -1.4323289 -0.21425527 -0.8950042
-0.5729282 -0.67132366 -0.012617099 1.0463455 1.1674346 0.7386208 -1.0309929 0.97112054
-1.3963804 0.6581417 0.6907332 1.056123 -0.04109754 1.3562572 -0.46712595 -0.53110486
1.608772 -1.2082285 -1.7518777 -1.0018092 -1.2323928 -0.86599743 -0.1231543 -0.5895281
-1.1958913 0.5408124 1.610651 -1.2264135 0.25849825 -0.066907816 0.085612886 2.0900915
-0.37276688 1.0342696 0.42945236 0.6573747 -0.5894674 0.3254505 -2.2519362 -0.7114609
0.16147543 -1.7104493 -0.15721373 -0.3449638 1.3441657 -1.5897942 -2.722358 -0.27657887
-0.30693734 -0.58490616 -0.7424664 -0.9505786 -1.643074 -0.303953 0.70016295 -1.4973578
-0.5774845 0.30879766 -0.076721966 0.3112698 0.62261325 -0.5307013 1.2896171 -0.33672696
1.1470846 0.04973452 0.11533154 2.1894379 1.1917192 0.091374844 -0.00017541337 0.72591597
1.2643645 -0.96505696 1.0933155 -0.03277296 1.0217911 -0.8893912 -0.7385802 -1.2643344
-0.8905411 -0.8660668 -1.2453951 1.9469185 0.9304179 0.52146274 1.5501114 0.47134233
0.9212512 -1.2383183 2.1431618 -1.656587 4.587953 0.61304367 0.18777925 1.1183733
-1.1700569 -0.7469682 1.0429193 -2.619318 0.23137209 -0.1002736 1.0989082 -0.43100268
-1.7474868 2.1738489 -0.7749509 0.25843054 -3.2694788 0.098432876 0.13699713 0.52826935
-0.8164385 -0.15062419 -0.010676264 -0.041228488 0.03011211 -1.5161749 -2.3057725 0.06528788
1.2095599 -1.7446352 -1.856507 0.80267185 -0.6527784 0.6372312 -1.1375282 0.22593583
-0.08814488 -0.2075256 0.24510653 2.1899645 0.9540512 -0.6736747 0.42452353 -0.35451388
0.28349787 -1.552083 0.76666164 -2.0824962 -0.5784329 -0.08306002 -0.6503431 0.43958527
0.37331972 -0.4768808 -1.7929028 0.87360525 0.69465566 -0.07671325 0.6208691 0.33043262
0.3879057 -0.15754795 -0.046686612 0.0065153 -0.8520049 -0.7387512 1.753599 1.1575011
-0.86949456 0.05339456 -0.6298833 2.169352 0.78622687 0.11664337 -1.4589307 -0.7921664

fc1.weight f4 [128, 896]
00000000: 1397 773c ce23 06bc 4e9d c13c a672 66bc
00000010: 5bb6 98bb d088 b03c e423 86bb 6d52 ef3b
00000020: a82b e7bb 291e b5bc c903 b4bc 46c7 8b3c
00000030: 4fb6 1fbb ffa8 3abc fb5d 2dba 19ba 863b
00000040: b650 febc 785c 093c 4504 ad3c 6486 adbc
00000050: 6f6e 633c 8c54 fcbc e369 1dbc 23e6 cabc
00000060: 7c0e b93c 2229 843b 29cb 523c 9bcc 94bb
00000070: 8417 3ebc b010 eaba 46a2 143c 1445 c5bb
00000080: 7d3f bfbc e8af 2a3c 596b c1bc 1130 1abd
00000090: 41ff 90ba c389 c03c 7029 0cbd 0bd3 14bc
000000a0: d163 033c 7271 473c 8af0 863c d150 0c3d
000000b0: 6be1 4abb 699b aa3c 5ccf 01bc abbf 4e3b
000000c0: 8c1a 2bbb cf21 723c b570 a53c 8c3c d6bc
000000d0: ebb9 d3bc b96d 64bc fef2 853c 506b c2bb
000000e0: bf4f 0d3c 2a1a 9abc 1e0c 0fbc b60f 603c
000000f0: df76 03bd 963f 843c 1745 a53c a6a6 2a3d
00000100: 3040 8bbc a173 d1ba 371e beba 9490 983c
00000110: db41 0e3d 4bdb 2e3d 00d2 003d ef63 d73b
00000120: 39ed 1b3c 6ecc d63c 6caa a0bc 4935 463c
00000130: 0a72 033d 2f9c f4bc 8899 653c ca37 c8bc
00000140: 71e7 9c3c a44d 93bc 41fc a63a 060f 55bb
00000150: e7df f4bc b3d1 bb3a ea60 be3b 5d6b 68bb
00000160: a985 083d 8507 803c 481f 1dbc ea50 30bd
00000170: 2e49 373d b89b b83c 5ee4 1a3d 004c 86bc
00000180: ccb6 0039 9e9c 793c ad4f 583c 6cf6 b2bc
00000190: d100 803c 1fdb 09bc 37dc 293d 1f9b 553b
000001a0: e365 13bd 525f 8e3c 6166 853c 2433 15bc
000001b0: 37b2 a33c 0b95 b6bc d80a ccbc 8a21 573c
000001c0: c4c9 2bbd 4b67 783c 08ff 0fbc ab60 e3bc
000001d0: cd82 8abc 0fe9 2c3c a666 0e3c daed 4b3c
000001e0: 6559 11bc 89ee 1b3c 25b8 53bc aa37 033d
000001f0: 64ad d3bc c7d8 1abd e060 61bc e635 d83c
00000200: 6e65 5ebb d93b 1ebd 82a0 1abd de76 d9bc
00000210: e25e 75bb b009 833c e67b 833c 7fef 39bc
00000220: 3677 14bd 1a53 6b3c c0af f5bb 8f81 1ebd
00000230: 3b18 893c 2d13 313d fa64 f3bc a670 563c
00000240: a101 25bc ea96 9e3b 2c5b 9bbc a3cf 363c
00000250: 9cc0 07bb b205 ab3c 07d7 d03b ee54 933c
00000260: 473a b2bc f933 a1bb 85c9 74bc 717e 1bbd
00000270: d496 823c 41ac 6f3c 0ecf 463c 9a56 83bc
00000280: e7cf cf3c 4a52 6b3c b107 84bc 9462 da3c
00000290: 424a 1ebd 2a05 19bc 7ebd 94bc 4982 483c
000002a0: 3521 ba3c fe40 a0bc a8b4 c23c cf48 55bc
000002b0: 5dfa 13bd b6e3 f4bc 8d9f 35bc fb25 7fbc
000002c0: e9ee 1dbb c9c4 103d aade 043c b7e9 b5bc
000002d0: 6898 abbc 6176 a23c 4d62 debc 6c0a 02bb
000002e0: 2710 493b 9a1d 20bd 17b6 1bbc 706f f43c
000002f0: a3e9 11bd 0bbb 0fbd c953 9ebb 61bb 983c
00000300: 9475 073c 1143 a3bc 9be0 93bb 30e7 36bc
00000310: 2025 d33c 6604 9dbc 1d9d e93c 0b1d 46bc
00000320: 4e29 d23c 2911 b23c fc15 963c 7f10 1d3c
00000330: a67d 51bb b597 a63b 70e9 45bc f088 8bbc
00000340: 7000 4fbc 63a7 1ebc 01e9 8abc 2ddf 073d
00000350: e38a e5bb fa28 ebbc 5dd5 443c 3a72 0a3d
00000360: 9d56 86bc a3f0 98bc bbb8 9b3c 8c2d c8bc
00000370: 62b6 923c 1772 233c a57f 6a3c 3b5a f0bc
00000380: b7df 37bb c798 debc 3b34 87bc 0c0c 923c
00000390: fa00 13bd 373d 233c a828 2cbc 5198 bbbc
000003a0: 05a9 a5bc 4768 073d 5828 d23b 0b01 d83c
000003b0: a5ac dcbc 499e 0f3d 84aa a33c 9f16 ec3c
000003c0: ffab 063c b7dd 6cbc 4ac3 953b 0fc5 9abc
000003d0: e5db dbbc 3794 be3c b8fe 9d3c 7ae0 01bd
000003e0: 2e02 f93c c029 4bbc 75f1 25bd 418c 6eba
000003f0: 7d3c 87bc 88dd d2bc c0c6 c8bc 9920 bf3c
0.0151117025 -0.008187247 0.023634579 -0.01406542 -0.0046604103 0.021549612 -0.004093634 0.007303527
-0.007054765 -0.022109108 -0.021974461 0.017062794 -0.002437014 -0.011392831 -0.00066134305 0.00411154
-0.031044345 0.008383863 0.0211202 -0.021182247 0.01388131 -0.030802034 -0.009607765 -0.02476794
0.022589915 0.0040332237 0.01286582 -0.0045409924 -0.011602286 -0.0017857756 0.009071892 -0.0060201976
-0.023345703 0.010417916 -0.023610758 -0.037643496 -0.00110624 0.02350319 -0.034219205 -0.00908352
0.008019404 0.012173044 0.01647212 0.03425676 -0.0030957113 0.020826058 -0.0079229735 0.0031547348
-0.0026108352 0.014778568 0.020195344 -0.026151918 -0.025845489 -0.013942176 0.01635122 -0.005933203
0.00862497 -0.018811304 -0.008730916 0.013675621 -0.032095786 0.016143601 0.020174546 0.041662835
-0.01699838 -0.0015979895 -0.0014504854 0.018623628 0.034730773 0.042689603 0.03145027 0.0065731923
0.0095170075 0.026220527 -0.019612513 0.012097665 0.032091178 -0.02985963 0.0140136555 -0.024440665
0.019153329 -0.017981358 0.0012739972 -0.0032510175 -0.029891921 0.0014329463 0.005809893 -0.0035464384
0.033330593 0.015628586 -0.009589978 -0.043045916 0.044747524 0.02253519 0.037815444 -0.016393661
0.00012275128 0.015235094 0.01320259 -0.021846019 0.01562539 -0.008414059 0.04146978 0.003259368
-0.03598584 0.017379437 0.01628417 -0.009106431 0.01998244 -0.022287866 -0.024907514 0.013130555
-0.041940466 0.015161346 -0.0087888315 -0.027756056 -0.016908074 0.010553612 0.0086914655 0.012446845
-0.008871411 0.00951732 -0.012922321 0.032035507 -0.025839515 -0.03780439 -0.013756007 0.026392888
-0.0033934969 -0.038631294 -0.03775073 -0.026545938 -0.0037440588 0.01599583 0.01605029 -0.011348604
-0.0362465 0.014363075 -0.0074977577 -0.038697775 0.016735187 0.043231178 -0.029711235 0.013088381
-0.010071189 0.0048397677 -0.018964373 0.011157903 -0.002071417 0.02087674 0.0063732895 0.017984834
-0.021756304 -0.0049195257 -0.014940624 -0.03796238 0.015941061 0.014628471 0.012134327 -0.016032506
0.02536769 0.014362881 -0.016116949 0.026658334 -0.038645037 -0.00933961 -0.018156763 0.012238094
0.022720912 -0.01956224 0.023767784 -0.013017847 -0.036127437 -0.029893737 -0.011085403 -0.01557302
-0.00240987 0.03534392 0.008109728 -0.02220617 -0.020946696 0.019831838 -0.027146483 -0.0019842638
0.0030679794 -0.03909073 -0.009503863 0.029838294 -0.035623204 -0.035090487 -0.0048317653 0.018644037
0.008267779 -0.01992944 -0.004512859 -0.011163518 0.025774539 -0.019167136 0.0285173 -0.012091885
0.025654461 0.021736698 0.01832103 0.0095864525 -0.0031965761 0.005084003 -0.012079582 -0.01703307
-0.012634382 -0.009683463 -0.016956808 0.03317182 -0.007005082 -0.028706063 0.01201376 0.03380034
-0.016398722 -0.018669432 0.019008985 -0.024435781 0.017909233 0.009975932 0.014312659 -0.0293399
-0.0028056928 -0.02717246 -0.016504398 0.01782801 -0.035889603 0.009963325 -0.01050774 -0.022899779
-0.020222196 0.03305843 0.0064135008 0.026367685 -0.026937792 0.035063062 0.01997877 0.02881938
0.008219718 -0.014457158 0.0045703994 -0.018892793 -0.026838252 0.023264034 0.019286498 -0.03170822
0.030396547 -0.012400091 -0.040513474 -0.0009099879 -0.016508335 -0.0257404 -0.024508834 0.023330973

fc1.bias f4 [128]
00000000: a548 9b3c f342 2e3c 279c 6e3d f925 2bbd
00000010: 286d b0bb bca1 883c b5d0 2a3d e126 f03c
00000020: 6dec fd3b b734 843c e916 ee3c 881d 7c3c
00000030: 8ff2 a5bb 6499 b93d 9f46 cf3b 8317 1c3c
00000040: accc 83bb 0861 2a3c 67bc 143c b40f 963d
00000050: c4e0 2abd 4cde 23bd 2692 1c3c e528 2ebd
00000060: ef06 403d 8858 4f3d c6c6 a03c 9aea 28bc
00000070: a02f c33c 8928 973c e801 423d 188f bfbb
00000080: 1d5f 0c3c ff2c a4ba 8989 ec3c 7cb4 0b3d
00000090: 297a 32bd d11b 39bd b681 be3b 77d2 413c
000000a0: b167 633b d098 ab3c eb6f c7bc 1bcf 06bd
000000b0: 0cd8 e2bc d681 0b3d c7a1 393a addc bcbb
000000c0: 8d8a 253c ff72 553d f42f 38bb 7945 af3c
000000d0: ca33 b53c 2551 f8bb 88ca 853c 57b0 e43c
000000e0: 241a 933c 8ac9 613d 5f4e e9bc b579 9139
000000f0: b516 deba a78e 22bd b939 7f3b b0ff 33bd
00000100: 079a 273d 3dea 103c 64fb 3f3c aae4 1ebd
00000110: e5c7 373c f02c 1abd d5fa 393d af41 103d
00000120: e1eb d2bb 655e 833b d576 c33c ce83 d1bb
00000130: f581 1ebd 6259 febc f41a 093c f8fc 413d
00000140: dbbd 9e3c 5e5d 6c3c 86f3 24bd 4b9d 17bc
00000150: f567 4a3c 1b02 293d e15c fabb 6536 a6bb
00000160: 58fc 01bd eb60 223d 8506 0ebd 2094 a93c
00000170: fde3 0cbc 6dd7 16bb 0f14 7bbc 1257 633d
00000180: 25de 13bd c3c8 683d c79f 07bc 0e01 35bd
00000190: 2fb6 443d e25b dbbb 1cdc 773c df80 7b3d
000001a0: bfba cb3c a497 aa3c a00f 21bc 1f58 1a3d
000001b0: aa6e 1b3d 5157 0f3d cb4d 9cbb 118f 5f3c
000001c0: cef3 ddbc 811d 673c 214e 783c 1c73 403c
000001d0: 192e 9c3c f7a2 5ebc 286a 24bb c897 9f3c
000001e0: 8f2a 13bd 4e6a b33c edba 6e3d 1f85 6ab9
000001f0: d9af 773c e945 9e3c 0f79 433d bb6c e3bc
0.018955538 0.010636079 0.058254387 -0.04178426 -0.005384106 0.016678683 0.041702945 0.029315414
0.0077491314 0.016138418 0.029063659 0.0153879 -0.0050643156 0.0906246 0.0063255574 0.00952709
-0.0040222015 0.010399111 0.009078122 0.07327214 -0.04171826 -0.04000692 0.009556329 -0.04251947
0.046881612 0.05062154 0.019626033 -0.01030984 0.02382642 0.018451946 0.0473651 -0.0058459155
0.008567599 -0.0012525617 0.028874176 0.03410767 -0.043573532 -0.045192543 0.0058138026 0.011829964
0.0034699256 0.02094689 -0.024345359 -0.032912355 -0.02769091 0.034059368 0.00070812966 -0.0057636113
0.010103834 0.052111622 -0.0028104754 0.021395432 0.022119422 -0.0075780326 0.016331926 0.027916117
0.0179568 0.055123843 -0.028479753 0.00027747234 -0.0016944023 -0.039686825 0.0038944317 -0.043945014
0.040918376 0.008844909 0.011717651 -0.03879229 0.011217092 -0.037640512 0.045405228 0.03521889
-0.0064368104 0.0040090554 0.023860374 -0.006393886 -0.038698155 -0.03104848 0.0083682425 0.04736039
0.01937764 0.014426557 -0.040271305 -0.00925381 0.012353887 0.041261774 -0.0076404666 -0.0050724023
-0.031734794 0.03964321 -0.034674186 0.020700514 -0.0085992785 -0.0023016587 -0.015324607 0.05550296
-0.036100525 0.056832086 -0.00827784 -0.04419046 0.048025306 -0.006694303 0.015128162 0.061402198
0.02486932 0.020824261 -0.009830385 0.037681695 0.037947334 0.03499538 -0.004770016 0.0136449495
-0.027093794 0.014106155 0.015155346 0.011746194 0.01906495 -0.0135886585 -0.0025087688 0.019481555
-0.03592926 0.021901276 0.058283735 -0.0002236557 0.015117609 0.019320445 0.047722872 -0.027761808

fc2.weight f4 [84, 128]
00000000: 68cf 87bc 0e78 833d 6493 703d 371d 95bd
00000010: efc1 96bd 95a3 02bd 4404 8a3d cbfd 903d
00000020: 2eb1 97bd 5ddd 9e3d 2bb6 dc3d 1932 58bd
00000030: 1bf6 2ebd 8b26 ba3d f13f 773d f13d 893d
00000040: 9ef8 31bd 16e1 c93d ad63 d8bb 3f64 c63d
00000050: 401c a1bc a0a0 c4bc f218 c93d 14f8 42bd
00000060: 6494 953d 420d 9f3d f68c e03d 3d86 71bc
00000070: 7695 a03d 6c62 813d 5b6d 223d 4784 5bbd
00000080: a2c4 a93d ce4c 26bd 399b c63d 2a1a 2e3d
00000090: 0980 8fbd 509a 6abc 75bc 9dbd 6b8b 453d
000000a0: ff4c bc3d 3989 2bbd dd2c d5bc 150e 82bd
000000b0: 4fd3 3dbd e7fc 983d c55e 98bd de8a 98bd
000000c0: 07da e33d d469 db3d 3b87 823d 2499 86bd
000000d0: 8179 113d 1c60 90bd 4957 423d 9dc6 b03d
000000e0: f274 87bd dcf2 cc3d 796e 58bd 8809 14bd
000000f0: 192d c63b a9b7 0c3c 0a2b a5bb 8aa9 ddbc
00000100: b7be af3d 13cd 2f3d 3cfb 96bd d8c6 1cbd
00000110: 4a86 96bc 3498 78bd a9af c33d bf00 7f3d
00000120: 5fe5 1dbd 2f4e ccbc 9da0 0f3d 97e6 8ebd
00000130: 7eb1 74bb 3a7e 2dbd cd79 e93d e821 e73d
00000140: af78 07bd c579 94bd acda 733b 8f01 92bd
00000150: 283b 9bbd 5319 613d 0b3f ad3d ea82 70bd
00000160: a404 2cbd 7204 403d de37 6cbd 554d 983d
00000170: bc71 46bd 6527 61bb fc5e aabb 1633 5f3d
00000180: a08a debc 1cc6 873d 52ed 28bd 73ae 87bd
00000190: 0fce a33d 9206 54bc 9c37 de3d 9aa4 643d
000001a0: 84c5 d83d 8d65 723d 6fb0 e8bb e9bf ad3d
000001b0: 8b8d 333d a016 9a3d f686 d23d 0053 c33d
000001c0: eca8 5c3c 7331 88bd 7233 71bd d968 c0bc
000001d0: 293d da3d 629b 803a 350a 90bd 47ac dd3d
000001e0: f918 6cbd e2b9 883d aea9 323d 8787 44bd
000001f0: 9eae 1d3d 3366 9dbc 2f75 3b3d 385b 50bd
00000200: 4ba8 af3c 5b87 88bd 39fd 103d 8923 45bd
00000210: b43d 5e3d d8d3 9cbd 703c ebbc 6fda f4bd
00000220: 57bd 2d3d 20c3 98bd 6b83 303d 0789 fc3c
00000230: 2ab1 413d 7d7d a8bd e085 323d ceb7 abbd
00000240: c12c 2fbd c9f0 c6bd 9756 04bd e9b8 8dbd
00000250: 84ba 7cbd 9500 6b3d 70ac adbd 32b8 ecbc
00000260: 4c2b a0bc 3627 283d 25d3 c9bd f51e f03c
00000270: 9c29 a3bd e228 44bc 2432 b7bd a9e8 1fbd
00000280: 06a5 df3c 3bce 543d e8d8 8bbd ade4 b8bd
00000290: d811 d6bb 831e 9bbd 5c56 39bd 7457 9abd
000002a0: 2a93 b3bd d54d abbc 27c2 893c e2a6 033d
000002b0: 21df 8cbd 5040 123d ae30 623d 40d9 c5bc
000002c0: 0eb3 99bc 3f07 9cbd 5dfe 1dbd fc6b 773d
000002d0: c9be 0cbd 6133 ec3c 276a f53c a526 7e3b
000002e0: 09e6 4a3d 0afc d2bd 6774 b4bd 6b3e 82bd
000002f0: f02b a03a d885 d13c 185e 323c e836 3fbd
00000300: 7dca fa3c 7757 3d3d f658 f53c 8523 5c3d
00000310: 28ef 29bd 2123 c63c 53ee 55bd 0733 e5bd
00000320: 68c5 d83c 55b0 653d 6afd 61bd 4c80 c9bc
00000330: fa5a 9abc 37c5 44bd e8be 3d3d 7f11 ebbd
00000340: ab03 7abd 377e 843d 523f 003c 5ca2 633d
00000350: 94b9 e33b 8aee 8fbd e0fe 81bd 0b26 0dbd
00000360: 2828 703d c135 96bc aba6 473d 56c4 19bd
00000370: 0ac2 723d 6365 be3c c401 963d 2e1e dbbd
00000380: 9c54 30bd 2ca7 a9bd 5401 1f3d 6149 1fbd
00000390: 8c82 e3bd 5ec3 6a3d c762 2e3d c0f2 2f3c
000003a0: bb92 3bbc e548 053d 633b 52bc 5178 0ebd
000003b0: ea67 d4bc a10d 16bd 5365 3d3d 55a1 363d
000003c0: d3af b4bd 38e1 813d 0d11 3bbc 130a 94bd
000003d0: 900a 113d 66d0 993d 26bf 3e3d 966c d93c
000003e0: 6c6c b1bd 5744 89bd fc13 9cbc 2afe 7fbc
000003f0: 65b2 a6bd 543e 673c e734 ccbd f748 b6bd
-0.016578391 0.06419383 0.058734313 -0.07280963 -0.07361209 -0.031894285 0.06739095 0.07079657
-0.07406841 0.077570654 0.10776933 -0.05278215 -0.042715173 0.09089383 0.060363714 0.067012675
-0.04344999 0.09857385 -0.006603679 0.09687089 -0.019666791 -0.024002373 0.09819211 -0.047599867
0.07303694 0.077662006 0.10964386 -0.014741478 0.078410074 0.063176006 0.03965507 -0.053592946
0.08289458 -0.04060059 0.09697575 0.04250542 -0.07006843 -0.0143190175 -0.07701961 0.048228662
0.09194373 -0.041878913 -0.026022369 -0.06350342 -0.046344098 0.07470112 -0.07439951 -0.07448362
0.1112557 0.107135445 0.063734494 -0.06572178 0.035516266 -0.070495814 0.047446523 0.086316325
-0.066141024 0.10007259 -0.05283973 -0.036141902 0.0060478565 0.00858871 -0.005040531 -0.027058382
0.08581298 0.042920183 -0.07372138 -0.03827557 -0.01837458 -0.060692027 0.09554989 0.06225657
-0.038548823 -0.024939625 0.035065282 -0.06977575 -0.003733724 -0.042356707 0.11400185 0.11285764
-0.033074077 -0.07249788 0.0037209196 -0.071292035 -0.075796425 0.05495579 0.0845929 -0.0587186
-0.041996613 0.04687924 -0.057670467 0.07436625 -0.04844831 -0.0034355756 -0.0051993113 0.05449208
-0.02716571 0.06629583 -0.04124195 -0.066250704 0.07998287 -0.01294102 0.108504504 0.05582104
0.10584548 0.059178878 -0.0071011106 0.084838696 0.043836158 0.075238466 0.10279648 0.09537315
0.0134680085 -0.06650057 -0.058886953 -0.023487495 0.106561966 0.0009811933 -0.07033197 0.10823875
-0.057641003 0.06676079 0.04361885 -0.04798081 0.038496606 -0.019213771 0.04576605 -0.050868243
0.021442553 -0.06666442 0.035397742 -0.048129592 0.054258063 -0.076575935 -0.028715342 -0.119557254
0.042416897 -0.07459092 0.04309408 0.030827058 0.047288097 -0.0822706 0.043584704 -0.08384667
-0.04276729 -0.09713895 -0.03230914 -0.069200344 -0.061701313 0.057373602 -0.084801555 -0.028896425
-0.019551896 0.04105302 -0.09854726 0.029311636 -0.07966921 -0.011972638 -0.089451104 -0.03904024
0.027300369 0.05195449 -0.06828481 -0.090279914 -0.006532889 -0.07574179 -0.045248374 -0.075362116
-0.08768304 -0.020911137 0.016816212 0.032141574 -0.06878496 0.035705864 0.055222206 -0.024151444
-0.018762138 -0.076185696 -0.038572658 0.060405716 -0.034361634 0.028833093 0.029957844 0.0038780358
0.049535785 -0.10301979 -0.088112645 -0.063595615 0.0012220126 0.025576517 0.0108866915 -0.046683222
0.030614132 0.04622599 0.029949646 0.05374481 -0.041487843 0.024186673 -0.052229237 -0.11191373
0.026461318 0.056076366 -0.055173315 -0.02459731 -0.01884221 -0.04803964 0.04632464 -0.114779465
-0.061038654 0.06469386 0.007827597 0.05557476 0.006949613 -0.070279196 -0.06347442 -0.03446011
0.058632046 -0.018336179 0.04874293 -0.037540756 0.05926708 0.023241704 0.073245555 -0.10699116
-0.04304944 -0.08283839 0.038819626 -0.03888834 -0.11108884 0.057315223 0.04257467 0.010739028
-0.0114485575 0.03254022 -0.012831542 -0.03478271 -0.025928456 -0.03663409 0.04623921 0.044587452
-0.08822598 0.06341785 -0.011417639 -0.07228484 0.035410464 0.07510452 0.046569012 0.026541036
-0.08663258 -0.06702488 -0.019052498 -0.015624562 -0.08139495 0.014113981 -0.09971028 -0.08900636

fc2.bias f4 [84]
00000000: b51a 423d 3492 07bc a9d1 8e3c 4b4e 36bd
00000010: 68cd b7bc 59e0 a9bd 10f9 253d 3639 a03c
00000020: a3f7 a83c 8638 ca3c 7bf6 29bd ac43 783d
00000030: f9f2 6fbd bcf4 c7bc 552a 71bc e3d0 4fbb
00000040: f515 e6bc 2dbb 8ebc 0d9a d7bc 2117 46bd
00000050: 01c3 bdbd 5509 cbbd 58ce c9bd 0eae 73bd
00000060: 46ef 8cbd 1490 cfbb e002 e1bc 427b a0bb
00000070: bb5c 5f3d 066f b9bd 72e2 f23b 223b 16bc
00000080: 8da6 353d a322 b0bd cebe 16bc 530a b53c
00000090: 2161 debc dc17 173d c561 3abd a848 3d3d
000000a0: f60a 15bd a98d 46bd 3086 4b3d bf62 60bd
000000b0: 8f34 83bd 918a 7dbd ae09 d43c 2932 5fbd
000000c0: 337c 133d fa35 61bd 6798 97bd 2360 253b
000000d0: bd44 29bd feef ef3c 2787 3f3d 688d d33c
000000e0: f9f4 283d d73b 7fbd e2c3 13bd e338 b3ba
000000f0: bbcc 67bd ed09 57bd dfde 543d 8913 5cbd
00000100: a94c c23c d7e7 d4bd 58d1 483c 3b21 3ebd
00000110: 5f70 e9bc 11a1 09bd f80f 513d b888 f63c
00000120: 1a87 6c3c c524 f13b 90d7 2ebd c1ee 5e3d
00000130: 5bf6 d0bd a394 97bd a2fb 3fbb 71e2 533d
00000140: 6ae5 62bd bfd0 1f3d 9d5c 0cbd bb2c 663d
0.04738875 -0.008274604 0.017433958 -0.04450826 -0.022436813 -0.08294744 0.040520728 0.01955853
0.020625895 0.024685156 -0.041494828 0.060611412 -0.058581326 -0.02440869 -0.014719565 -0.00317102
-0.028086642 -0.017423237 -0.026318574 -0.0483619 -0.0926571 -0.09913889 -0.0985381 -0.059492163
-0.06881575 -0.006334314 -0.027467191 -0.004897506 0.054531794 -0.09054379 0.0074122483 -0.009169372
0.04434829 -0.086003564 -0.009200765 0.02209965 -0.027145924 0.03688799 -0.045503397 0.04621187
-0.036387406 -0.04847494 0.049688518 -0.05478167 -0.06406509 -0.061899725 0.025883522 -0.054491196
0.036007117 -0.054983117 -0.07402115 0.0025234304 -0.04132532 0.029289242 0.04675975 0.025824264
0.04124925 -0.062312927 -0.03607548 -0.001367357 -0.05659173 -0.0524997 0.05197036 -0.053729568
0.023718195 -0.103957824 0.012256943 -0.04641841 -0.028495966 -0.03360087 0.05104062 0.03009449
0.014436508 0.0073591196 -0.042686045 0.054426912 -0.102032386 -0.07401397 -0.0029294272 0.051729623
-0.055394568 0.039017435 -0.03426801 0.056195002
