nettalk_state_dict.pt (torch, 516242 bytes, 5 tensors)

embedding.weight f4 [35, 128]
00000000: 93e2 80bf f167 3bbe 6651 ddbe d266 953e
00000010: 177f 873d 50ec c2bd 584c 913e be8f 11bf
00000020: 2a88 c73e 3702 babd 3c09 d63e 928f 17bf
00000030: 43be 3bbe d77e 003e 87d2 aa3e 36b3 803d
00000040: d8f8 3abf 46aa 9bbe 7433 1b3d 9732 3d3e
00000050: bb68 c5bc 3a76 4cbd 0e8c cd3e f86f d8bd
00000060: 95be 99bf 2890 a1bc 8083 413e a520 b7be
00000070: 0d47 e2bd f0a7 acbe 5bb9 babe d379 583e
00000080: be4d 793d e1b5 f93c ebdc 363e 3535 533d
00000090: f436 223e b3c8 ba3e 990b 463f a254 b83e
000000a0: e35e 4fbe abde d3be e3ef 35bd 980d 3cbe
000000b0: 1800 07be 3302 59be ed66 3a3d 6436 d53d
000000c0: 8c4b afbd ae51 c43d d5db a5bd 6ffc ef3d
000000d0: c051 5e3d 5543 ce3e 9f3d d33e fb50 883d
000000e0: c105 803f c7c8 dd3e 715a 00be 8621 dd3e
000000f0: 43cb f3be 4b50 ae3c d111 89bc cdf0 19be
00000100: c422 b73d 35b1 35be 0919 febd 9689 e23d
00000110: e038 933d 8165 6e3d 2ef9 6a3c 67c2 e03e
00000120: 1695 f33e e003 3cbe 42df bbbc 582e 3c3e
00000130: bd97 11bb b12f 3b3e e1c7 0bbf 7fba 8dbe
00000140: 093c d7bd 237a 163e ab33 94be f922 9bbe
00000150: 2840 f1be 2ae9 02bf 712f cbbd a03a 683b
00000160: be40 bfbd 79e7 943d 131f a93e 52da 6ebf
00000170: 8468 013f 4006 c53e bcb0 7a3f c5da 863e
00000180: 4f23 87be 023d 173e 7415 8fbe 78dc 363a
00000190: eed6 51be 85b7 4dbe a405 80bd 06c2 513e
000001a0: 0182 c83e ce0d 803e 4b31 cf3d d852 3f3f
000001b0: a9da 11be 07f9 5d3e d527 8b3c f2a6 073e
000001c0: 85ad 06bf 30b3 c43d f520 62be 1d95 783e
000001d0: afaa 0fbf cf1d 03bc 31a3 3bbe 723d 523f
000001e0: 92bb 7f3e 8e82 fbbe 04d6 ac3d a173 1ebe
000001f0: c172 12be 4363 a0be c7cd 93be 625a 5cbf
00000200: 932a bfbe c635 003f 606a de3f 0891 0dbe
00000210: f461 643f dda3 0440 8c20 253e 1905 ecbc
00000220: 0a27 ac3e 38ab 8b3e 10c4 d3bd 529b c63e
00000230: 82c1 b2bf 8d6d f23f 68dd 32be 7f1b a43e
00000240: 0c17 1abe 69f4 1e3f 40ea 513f 99db a4be
00000250: 39da ecbf 42b0 1fbf a660 d0bf a6b2 e0be
00000260: 653e ccbe ee51 6ebe b84c 733f 8e24 943f
00000270: f755 4fbe 4b28 243f d53b 07bf 9141 be3e
00000280: 1b1a 3f3e 955a 26bf d9bd 193f 4b53 2dbf
00000290: fdf7 4d3f 92bd 473e 0a75 a3bf 32bd a13f
000002a0: 90c2 fdbf 594a 213f 7642 823f 0da7 c4bf
000002b0: 7045 90bf bde2 8e3e 630e 093f e257 0bbf
000002c0: 1b45 e2bd 1502 92bf d79a 273d a35d 67be
000002d0: 04ef 01c0 45af 423f 1e74 b93e b04e 513d
000002e0: 99dc 1f40 ab67 16be 8568 843d 46bd 553f
000002f0: 23df 203f ae9c dcbe a721 b4be 4388 2cbf
00000300: de30 643e feb3 dabf 06fb b53f 575d cf3d
00000310: 7a78 efbe 6e71 2a3f 1454 c83e acaa 793f
00000320: 8220 7cbf af94 8bbf 7192 28be cc1c 91be
00000330: 2dc8 3ebf ca42 84bf 1104 c23f b164 09bf
00000340: 0990 ec3a a36d a53d 49a3 c5bf 9bb6 b33f
00000350: bddf c13f 1e72 02c0 4de8 31be 6323 593f
00000360: 4e44 11c0 0951 1b3e aada 8dbf 8e30 b2bf
00000370: 43aa b2be 550a 56bf 9f7d c7bf d717 abbf
00000380: edc7 5d3e 2109 22bf e3f8 12bf fe19 21be
00000390: fad0 623f ef73 34be b7ae 803d b6d1 aa3e
000003a0: b36d f43f d5c2 a2bf 33a4 793f 24a2 4fbf
000003b0: 061d 38bf deb2 38be a463 0640 fe5b 9fbe
000003c0: 3562 0fbf 72d6 ef3e 6d84 013f 0ce0 913e
000003d0: cf59 40bf efff f0bc 848f d9be 9af7 b53f
000003e0: e2a8 35bf 3f4f 753f 86c3 89bf d897 013f
000003f0: 52b7 ba3f 6dcd 4abf a220 febe 6d0b f33e
-1.0069145 -0.18301369 -0.43226165 0.29180008 0.06616037 -0.09517729 0.28378558 -0.5685996
0.38971072 -0.09082454 0.4180392 -0.59203446 -0.18334298 0.12548386 0.33363745 0.06284182
-0.73035955 -0.30403346 0.037890866 0.1847633 -0.024097791 -0.049917437 0.40145916 -0.10568231
-1.2011286 -0.01972206 0.1889782 -0.35767093 -0.11048708 -0.33721876 -0.3646954 0.21140222
0.060865156 0.030482234 0.17857711 0.051564414 0.15841275 0.36481246 0.77361447 0.3600207
-0.2025104 -0.4138082 -0.044418227 -0.1836456 -0.1318363 -0.21192245 0.045508314 0.10410765
-0.08559331 0.09585892 -0.0809857 0.1171807 0.05427718 0.40285745 0.4125795 0.06656071
1.0001756 0.43317243 -0.125345 0.4318964 -0.47616014 0.021278521 -0.016732128 -0.15033264
0.08942178 -0.1774338 -0.12407119 0.11061399 0.071885824 0.05820227 0.014341636 0.43898317
0.4757468 -0.18360853 -0.022933606 0.18377054 -0.0022215687 0.18279912 -0.54601866 -0.27681348
-0.10509498 0.14695029 -0.2894567 -0.3030012 -0.4711926 -0.5113703 -0.09921158 0.0035435334
-0.093385205 0.072707124 0.3303152 -0.9330188 0.50550103 0.3848133 0.97925925 0.26338783
-0.26394126 0.14769366 -0.27946055 0.00069756014 -0.20492145 -0.20089538 -0.06251076 0.2048417
0.39161685 0.25010532 0.10116824 0.74735785 -0.14243568 0.21677028 0.016986767 0.13247278
-0.5260852 0.0960449 -0.22082885 0.24275632 -0.5611982 -0.008002712 -0.18323971 0.8212501
0.24973896 -0.49123043 0.08439258 -0.15473796 -0.14301588 -0.3132573 -0.28867933 -0.86075413
-0.3733717 0.5008205 1.7376213 -0.13824856 0.89211965 2.0725014 0.16125697 -0.028811025
0.33623534 0.27279067 -0.1034013 0.38790375 -1.3965304 1.8939682 -0.17467272 0.32052228
-0.15047854 0.6209169 0.8199806 -0.3219879 -1.8504096 -0.62378323 -1.6279495 -0.43886298
-0.39891353 -0.23273441 0.9503894 1.1573656 -0.20247637 0.6412398 -0.5282567 0.37159398
0.18662302 -0.6498197 0.6005531 -0.6770522 0.80456525 0.19505909 -1.2770092 1.2635863
-1.9825001 0.6300407 1.0176532 -1.536348 -1.1271191 0.27907363 0.5353758 -0.54430974
-0.11048337 -1.1406885 0.04091915 -0.22594313 -2.0302134 0.7604869 0.36221403 0.051100433
2.4978392 -0.14687984 0.06465248 0.83491933 0.6284048 -0.43088287 -0.35181925 -0.6739542
0.22284266 -1.7086179 1.4217231 0.10125225 -0.46771604 0.6657933 0.39126647 0.9752605
-0.98487103 -1.090475 -0.16462113 -0.28342283 -0.74524194 -1.0332882 1.5157491 -0.5366927
0.0018048297 0.08077552 -1.5440456 1.4040102 1.5146405 -2.0382152 -0.17373772 0.8481962
-2.269794 0.15167631 -1.1082356 -1.3921068 -0.34895524 -0.83609515 -1.5585212 -1.336665
0.21658297 -0.6329518 -0.5741102 -0.15732571 0.8860012 -0.1762235 0.06283324 0.33363122
1.9095978 -1.2715708 0.97516173 -0.8110678 -0.71919286 -0.18036982 2.0998316 -0.31124872
-0.5600923 0.46843296 0.5059269 0.28491247 -0.7513704 -0.029418914 -0.42492306 1.4216187
-0.7096082 0.95824045 -1.0762794 0.5062232 1.4587195 -0.79219705 -0.49634272 0.47469655

fc1.weight f4 [128, 896]
00000000: f2ae 48bd de3b 3f3d cafa 84bc 47af db3d
00000010: 838c 2fbc c91a 94bd 9718 35bd 497e 0abe
00000020: 8c39 ca3c 95be b53d eb14 1b3e 45ba 1cbd
00000030: d490 d53d 77fb 73bc 501c e7bc 73cc cb3d
00000040: 5ba4 01bb c85b 70bd 363b f6bd 706b 183e
00000050: 006c 7f3c 733f c2bd 01e7 f1bc 11ce a73b
00000060: 2691 43bc e10d 1b3c a5bd 743c a2dc 04be
00000070: d582 353d a116 e0bd 3982 f7bd 33c0 353e
00000080: 0f07 243d 7ebc b4bd 759f 183e 1c7f d8bb
00000090: b789 04bd bb47 903d dd00 0a3d 804b 413e
000000a0: 8168 453e f5cc 0bbe b01e c1bd 4165 043d
000000b0: 3e05 c43d 779d ac3d f765 1dbb 71f1 143e
000000c0: 5495 093e 968d d1bd 7b78 7dbd d0b5 75bc
000000d0: 2b60 9f3d 3151 f7bc e8cf 343d 5264 71bd
000000e0: 74af 9a3d 2332 1bbc ee27 133e 0c0d cabc
000000f0: 4e6d babc f7c7 043d 3df4 4e3c df4c e13d
00000100: 06f4 24bd 0181 fdba 1af9 78be f96d e0bb
00000110: b3ec 1c3e dd63 d2bd faef b2bd e130 1e3e
00000120: faa5 b93d 4b73 ad3c 1573 9c3d 190b 1a3d
00000130: 28c0 113d 56dd d93c e305 67bd 3df7 45be
00000140: 07cf 07be d8d2 7dbd 20e5 24bd c38e eebd
00000150: 6958 a0bd 3446 493d 2396 ed3d 0f15 01be
00000160: b786 2cbd 22de 9d3d 9473 383e 8843 cebd
00000170: c47d a13d 1702 773d 1274 c7bb b88c 293c
00000180: 3194 1dbd 2bfe 083e 16a1 ebbd 303e 7abd
00000190: 64e4 833d e762 dc3d 4fe2 8dbc 374c 2abd
000001a0: efa3 0bbd 3576 16bd 0666 2bbc 9d47 603d
000001b0: 5b2a 3dbd 6e85 63bd c041 e3bd bae4 013e
000001c0: 9da4 37be 4572 01bd 25e5 27be db55 443d
000001d0: 3ba6 55be ac1d 32bc 89b2 04be d230 0c3e
000001e0: 98b8 a33d 0750 0abb 33df d03d 5142 adbb
000001f0: dec0 4fbd a464 dbbc 34d8 44bd 1255 a3bd
00000200: 16a9 483d 55e7 a33d 70c5 a1bd 2779 34bd
00000210: c62f ea3d 6f76 f13d 4ece 5dbc ad34 8e3d
00000220: 938b bebd 7f7e f8bc 06f0 cbbd e3ae 6b3d
00000230: 7e9b ea3d f25a 843d c1ec 1e3d 3c72 033e
00000240: 5f25 223e ebef cfbd 1b24 733c 07ac 22bd
00000250: cc96 8f3d ecdd 9dbd ce21 ccbd 68a7 9cbd
00000260: 9d14 80bc f9ac 1abd 90b3 913c b74f 0e3e
00000270: b075 abbd 03e5 8c3c 7841 86bb fbf8 0fbe
00000280: 293a b13d e0bd 8ebd 070d 023e d71c 1cbe
00000290: 82fe e1ba ca55 d33d 4b50 86bd 96f9 a6bd
000002a0: 8462 313e 31f0 1ebe b3cc c63b 8c1a 213d
000002b0: 03a3 fa3c fc64 edbc e1ec c1bd fdd0 6b3e
000002c0: 66b2 063e 7e40 413d 92d8 0a3c 9589 983d
000002d0: 0efa 043c 9421 16bd ae51 4bbd e091 1abd
000002e0: 2e27 f6bc 7465 f7bd 31b5 e23c e574 80bc
000002f0: 4e22 173e 58ad 173e b321 bb3c 293e 5b3d
00000300: d1c3 a4bd a50d 953c a806 bfbd f992 86bd
00000310: 45a9 f53d ac9d b0bd b183 33bd 7276 86bc
00000320: b859 d43d bfa3 853b 4f04 243d 4915 a93d
00000330: b276 0dbe 7c3d d3bd a531 3b3c 2aaf a9bd
00000340: d24f 59bd 1ba8 3abd a704 b2bd cf86 9f3b
00000350: c09f f3bc b854 44bd f0a6 2f3d 1686 55bd
00000360: 40ef 02be 7c98 2a3c 390f 723d 068d 8bbc
00000370: 567a a5bd 0cd6 a3bd 5035 c23c 0d4a 993d
00000380: 6e71 af3d 13b4 05be a4c4 9e3d 01ee 5d3d
00000390: 9a78 453e c724 dbb9 18a3 50be 9962 e6bc
000003a0: 2d43 96bd 34e1 5f3d fdcf ffbb 295c 80bd
000003b0: c129 e23d f70e 19bd a421 11bd 648c 723d
000003c0: b667 543d 9b41 0cbc 69cd 51bd c87b 063e
000003d0: ac19 0a3d 87c0 013e 3df6 cdbd b739 73bd
000003e0: 9342 cb3d 722f c83d c83a 543e 91a0 8c3b
000003f0: 5831 a93d 3f2b a23c 7876 d4bc c247 9b3d
-0.048994966 0.046687953 -0.016232867 0.10726791 -0.010714653 -0.07231671 -0.044212904 -0.13524736
0.024685644 0.08874241 0.15144698 -0.038263578 0.104280144 -0.014891497 -0.028211743 0.09951105
-0.0019781801 -0.05868128 -0.12023012 0.14884734 0.015589714 -0.09484758 -0.029529097 0.0051210006
-0.011936462 0.009463758 0.014937793 -0.1297479 0.044314224 -0.10941816 -0.12085385 0.177491
0.040045794 -0.088250145 0.14904578 -0.0066069495 -0.032357898 0.070449315 0.03369223 0.18876457
0.19278146 -0.13652404 -0.09429681 0.032323126 0.09571312 0.084284715 -0.0024017075 0.14545228
0.1343587 -0.102320835 -0.061882477 -0.014996961 0.077820145 -0.030190082 0.044143587 -0.058933564
0.07552996 -0.009472403 0.143707 -0.024664424 -0.022757199 0.032417264 0.012631473 0.1100099
-0.04027178 -0.0019340814 -0.24313775 -0.0068490473 0.15324669 -0.10272954 -0.08737178 0.15448333
0.09064861 0.02117314 0.07639138 0.03760824 0.035583645 0.026594799 -0.0564021 -0.19332595
-0.13262568 -0.061968654 -0.040257573 -0.116483234 -0.07829363 0.049139217 0.11600902 -0.1260569
-0.04212066 0.07708384 0.1801284 -0.10071474 0.07885316 0.060304727 -0.0060868347 0.010348491
-0.038471404 0.13378207 -0.11505334 -0.061094463 0.064400464 0.107610516 -0.017319826 -0.04157659
-0.034091886 -0.036733825 -0.010461336 0.054755796 -0.04618297 -0.05554717 -0.11096525 0.12684909
-0.17933889 -0.031603117 -0.16396005 0.04793344 -0.20864193 -0.010871332 -0.12958731 0.13690498
0.07994193 -0.002110483 0.10198822 -0.0052874465 -0.05072104 -0.026781388 -0.04805775 -0.0797521
0.048989378 0.080031075 -0.07898986 -0.044060852 0.11434893 0.117901675 -0.013537956 0.06943641
-0.093039654 -0.030333756 -0.0995789 0.05753983 0.11455439 0.06462659 0.038800005 0.12836546
0.15834568 -0.101531826 0.014840151 -0.03971484 0.07011184 -0.07708344 -0.09967385 -0.07649118
-0.01563483 -0.037762616 0.017785817 0.13897596 -0.083720565 0.017199045 -0.00409716 -0.14059822
0.08653671 -0.069698095 0.12700282 -0.15245377 -0.0017241987 0.10319097 -0.065582834 -0.081530735
0.17322737 -0.15521313 0.0060668825 0.039331958 0.030595308 -0.028978817 -0.09469009 0.23028941
0.13153991 0.047180645 0.008474486 0.07448117 0.008116258 -0.036653116 -0.049638443 -0.037736773
-0.03004798 -0.120798975 0.02767429 -0.01568074 0.1475918 0.14812219 0.022843217 0.053526077
-0.080451615 0.018194983 -0.093274415 -0.065710016 0.11995176 -0.086238235 -0.043826763 -0.016413901
0.10368675 0.004078358 0.04004317 0.08256013 -0.1381481 -0.103144616 0.01142541 -0.08285363
-0.05305464 -0.045570474 -0.086922936 0.0048683654 -0.02973926 -0.047932357 0.042883813 -0.052129827
-0.12786579 0.010412332 0.05909655 -0.017035019 -0.08079974 -0.079998106 0.023707062 0.07484827
0.08566557 -0.13056974 0.0775235 0.054182056 0.19284287 -0.00041798336 -0.20374715 -0.028123187
-0.073370315 0.05465813 -0.0078067766 -0.06267578 0.1104312 -0.037367787 -0.035432473 0.05921592
0.05185672 -0.008560563 -0.051221285 0.13133156 0.03371589 0.126711 -0.10056732 -0.059381213
0.099248074 0.097746745 0.20725548 0.004291602 0.08261365 0.019796012 -0.025935397 0.07582046

fc1.bias f4 [128]
00000000: 4871 4cbe 70d6 b4bd e0ad 90be 57e2 fbbd
00000010: 4b2f acbd 6875 81be eb2e 21be 812e 6abe
00000020: 73fd 21be f969 3abe b4cf d7bd 0a24 55be
00000030: a620 e7bd 34fa 87bd e431 43be 8603 00be
00000040: e783 29be 8bc6 dbbd 6cd2 76be 6c27 c5bd
00000050: 2eea 84be dfa9 a1bd dde7 9bbd 1523 2ebe
00000060: 1582 c9bd 02a6 33be 6620 0fbe 2984 00be
00000070: 2b01 86be 36fe e8bd 5708 1bbe 95e7 c3bd
00000080: 8d03 f4bd 4887 a8be a624 4fbe 5b3e 19be
00000090: 9dbd d8bd 1300 91be a880 5dbe 2ccb 43be
000000a0: d501 fcbd 7d04 8dbe f16d 1cbe 0767 a7bd
000000b0: 87ce 11be 150b 84be 75e5 b0bd d903 49be
000000c0: 64b7 19be d15a a6be 8b70 79be b1fc 82be
000000d0: cd3b 83bd f10f 2bbe 2421 1cbe 8357 16be
000000e0: 76c8 8dbe 179c 69bd 4011 79be c0ba b0bd
000000f0: e3d3 4bbe 63ad 1cbe bfea a2bd f53c 6fbe
00000100: 4cf2 30be aa89 31bd 9520 32be 8a50 58bd
00000110: 762c 56be d2be cabd 3be2 f8bd 6b1b 16be
00000120: e831 50be e016 86bd 5713 05be 77f8 05be
00000130: 2836 13be 5783 1ebe 2d83 bdbd eb1d 31be
00000140: 67d1 33be 3661 3ebe 1b60 58be 51a0 69be
00000150: fef9 d9bd db82 1ebe 5b97 28be e481 06be
00000160: d734 38be 7115 e2bd 07e7 a1be e335 a7bd
00000170: aa4f 94be b00b 3ebc 7458 8bbe 008c 5fbe
00000180: f7c4 56be f0bd dbbd f411 83be bdf4 1ebe
00000190: 0e3f 38be 9fa8 bebd 3e20 2ebe fe7e e7bd
000001a0: de6d 87be 8d89 dcbd 1153 4dbe 62c3 d8bd
000001b0: 488d dcbd 90a5 54be d6c0 11be ab0d e5bd
000001c0: 73c7 60be f8a4 76be c63c 88ba d13e 49be
000001d0: 2b6c 61be ff94 a3be 3e2e a8be c05b 6dbe
000001e0: b52a 83be 106a d9bd ea2d 46be 6d7a 58be
000001f0: dca5 39be 432b 84be 351a 2fbe 9181 5abe
-0.19965088 -0.08829963 -0.28257656 -0.1229903 -0.08407458 -0.25284886 -0.15740554 -0.22869302
-0.1581934 -0.18204488 -0.10537663 -0.20814529 -0.11285524 -0.06639519 -0.19062 -0.12501344
-0.16554223 -0.107312284 -0.24103707 -0.0962666 -0.25959915 -0.078937285 -0.07612584 -0.1700557
-0.09839264 -0.17543796 -0.13977203 -0.12550415 -0.26172766 -0.11376612 -0.151399 -0.09565655
-0.1191474 -0.3291571 -0.20228824 -0.14965193 -0.10583041 -0.2832037 -0.2163111 -0.19120473
-0.12305037 -0.27542487 -0.15276314 -0.08173948 -0.1423894 -0.25789705 -0.086375155 -0.19630374
-0.15011364 -0.32491162 -0.24359338 -0.25583413 -0.064078905 -0.167053 -0.15247017 -0.1468182
-0.27692002 -0.057033625 -0.24322987 -0.0862937 -0.19905047 -0.15300517 -0.079549305 -0.23363097
-0.17279929 -0.043344177 -0.17395242 -0.052811183 -0.20915398 -0.09899677 -0.12152525 -0.14658897
-0.20331538 -0.06547332 -0.12995659 -0.13083063 -0.14376128 -0.1547979 -0.092535354 -0.17296569
-0.1756035 -0.1859177 -0.21130411 -0.22815062 -0.10643385 -0.15479605 -0.16463988 -0.13135487
-0.17988907 -0.11039246 -0.31621572 -0.08164575 -0.2896703 -0.011599466 -0.27215922 -0.2183075
-0.20973574 -0.10729587 -0.25599635 -0.15523048 -0.17992803 -0.09309506 -0.17004487 -0.11303519
-0.2645101 -0.10768423 -0.20051219 -0.10584141 -0.10769135 -0.20766282 -0.14233717 -0.111842476
-0.21951084 -0.24086368 -0.0010394088 -0.19652869 -0.22013919 -0.31949612 -0.3284778 -0.23179531
-0.2561852 -0.10615933 -0.19353452 -0.21140452 -0.18129677 -0.25814256 -0.17099841 -0.21338488

fc2.weight f4 [70, 128]
00000000: 2b92 33be 60f6 14be b9c0 edbc d7af 87bd
00000010: be1e a7bd bc2e cfbc 95cb 4b3d 44ee dd3c
00000020: 7abd 76bd 318f 483c 9cf0 913d 57f7 9d3c
00000030: c8ab 573c 009d 66bb eae2 0ebe d54f 643d
00000040: 7ad6 823d 650c 2bbd 6c36 7cbd 8cff 573d
00000050: b890 e43d 882d 1f3c a5d4 c1bd 05fa 923d
00000060: 6266 503d eae2 9ebd 61ba 113b dfbf 0abe
00000070: fc15 40be 54de ce3d 78ef ed3b f601 f33c
00000080: 7d6a 043d 6d3e a7be 109f efbd a859 b13c
00000090: a774 ac3c 4331 5abe 864e 803d 3f82 bb3d
000000a0: 4bd6 6b3d a8bb df3d c1d1 ef3d 5997 01bd
000000b0: 2f23 b53d 2804 f9bd 6923 7a3d 37de bc3c
000000c0: 405f 04be 0dfe 4dbd 5282 9fbe d2c9 8ebe
000000d0: 6f74 8b3c ed34 4b3d a52b 14be cd00 c7bd
000000e0: 6b26 22bd d87d e33c d556 92be 9920 1abe
000000f0: e246 8ebc c9b5 b93d b5da 3cbd 3827 b4bd
00000100: 5352 dd3c 4891 963d e055 7c3d 402b 503d
00000110: ab9f ccbd 998c bdbd e12c 01be 1e5a e0bc
00000120: 5dc7 363d b129 913c d318 dabd 628c a7bc
00000130: 3c2e a8bd 6831 d6bd 4938 bfbd 4b76 66be
00000140: 66f4 be3d b6ba 753d 14ad 863d 78a1 2bbe
00000150: 2e47 823d 208c 11bc 471c 88bd 9d72 f13d
00000160: 9e32 19be 54db 233d 9bfe 183e 9335 ecbd
00000170: 2498 9dbe 0956 4c3d 5e1f b6be a79a d73c
00000180: da8b afbd fce4 9b3d ebff 9ebe 9440 d23c
00000190: aacd f3bd 305b f03c 5bce 0f3d 6a34 853d
000001a0: eac3 06be 229c 37be c55d 853b 9b63 cebc
000001b0: 5381 3bbe b7b4 8cbe d50d 1abd e108 57bd
000001c0: f741 fbbc 3965 16be 25b7 c13c 4bc8 a4bd
000001d0: df00 0bbd fe6d 0a3e af93 8fbd fd3d 923d
000001e0: 43fd 1ebe 7b88 a43d a585 b23d 7e93 ce3d
000001f0: 3ecd 6fbe d243 cfbd f8d6 3abe 8d01 3bbc
00000200: 03ec bfbc c768 f03c a6cb 86be 142c ea3c
00000210: 65ed 9ebd a9eb 753c 91f6 3cbe 06f2 693d
00000220: 6a68 5bbc 1368 31bc 6dbb 93bd 19f1 23be
00000230: b059 9fbd 6d5d 2f3c 219d 133e 6cc2 00bd
00000240: 6299 5abb da31 02bf 3117 38be 9ca9 89bc
00000250: 70ce 10be 45f6 f6ba 0fb5 013d e8f5 fbbc
00000260: 8321 34bd 2f84 54be 6ebe 54be 88b7 b43d
00000270: 9d4a 18be f59a 6bbe eef7 39bd 247a f23d
00000280: c7b9 b3bd af50 1dbe 7b71 33be ab94 b33d
00000290: d959 23bd 9dba 7dbd d510 2fbc 273d b0bd
000002a0: 4a53 9cbc f021 bfbb 86fc 2bbe 699d 15bd
000002b0: 903e d8bd 79f2 98bd 46c4 48bd f810 0cbe
000002c0: 15e8 67bd c728 8abb f0b0 463c 75e1 f3bc
000002d0: d831 6f3d a520 60bd f9ca 1f3e 501e 82bd
000002e0: b963 993c 9c30 e4bb c7d0 e33d 1cc5 a1be
000002f0: 94bc 6b3c da34 013e adfa d73d aff5 6cbe
00000300: 0c70 87be addb 3fbf 299a a5bc 6101 46be
00000310: 9184 023d 7954 fd3c a521 98be b6df a7bd
00000320: 9158 82bd 6478 61bc 0418 0ebd 44c0 b5bd
00000330: e2f1 423d 7596 5fbe 800c 1bbd f665 b5bd
00000340: 5d9f b83d c935 573b 85b5 933d 9379 f5bd
00000350: 843d 76bc f17d f43d 44ac db3c d544 70bd
00000360: a22d 97bd 53f3 df3d 40b4 813d 98e7 d23c
00000370: 98c7 a73d a652 8f3d 67be 2a3e 1b7c c83d
00000380: 74e1 02be 37e5 30bc 70ef 733d ac07 623d
00000390: a8c1 22bd 5f33 a4bc 9212 ab3b 1255 18bd
000003a0: 27f2 58bd 71c7 13be ffd2 9fbe f892 8e3d
000003b0: 1e2e 463d 51be 0a3c aff3 783d 788f 58be
000003c0: f14e 4e3c 94d3 6839 2f53 c73c b6d9 683d
000003d0: 7595 90bd 62e7 7abd 48a3 02bd dba5 31bd
000003e0: 0400 863d e8ff cebd bd87 9dbe 132d 67be
000003f0: d362 76bd 520e 82be 4948 95bd 8691 5ebe
-0.17536227 -0.1454711 -0.029022561 -0.06625336 -0.081601605 -0.02529084 0.049754698 0.027091153
-0.060239293 0.012241171 0.07125971 0.01928298 0.013163514 -0.0035188794 -0.13953748 0.055740196
0.063885644 -0.041759867 -0.06157534 0.052733943 0.111604154 0.009715445 -0.09464387 0.07176594
0.05087889 -0.07758124 0.0022236335 -0.13549756 -0.18758386 0.101009995 0.007261213 0.029664021
0.032328118 -0.32664815 -0.11700261 0.021649197 0.021051718 -0.21307854 0.06264977 0.09155702
0.057577413 0.109244645 0.11709929 -0.031638477 0.08844601 -0.12158996 0.061068926 0.023055179
-0.1292696 -0.05029111 -0.31154114 -0.27888352 0.017023293 0.04961102 -0.14469774 -0.097169496
-0.03958742 0.027769968 -0.28581873 -0.15051498 -0.017367784 0.09067876 -0.046107013 -0.08796543
0.027016794 0.07351929 0.061605334 0.050822496 -0.09991392 -0.092553325 -0.12614776 -0.027386721
0.04462372 0.017720075 -0.10649266 -0.020452682 -0.082119435 -0.10458642 -0.093369074 -0.22506063
0.09323959 0.059992515 0.06575981 -0.16760814 0.06361233 -0.008883506 -0.066460185 0.11789439
-0.14960715 0.04000409 0.14940874 -0.11533656 -0.30780137 0.049886737 -0.35570806 0.026318861
-0.085715964 0.07612035 -0.31054625 0.025665559 -0.11904462 0.029340357 0.035108905 0.06504138
-0.13160673 -0.17930654 0.004070016 -0.02519398 -0.18311052 -0.27481624 -0.037610848 -0.052498702
-0.030671103 -0.14687051 0.0236469 -0.08046015 -0.033936378 0.13518521 -0.0701059 0.071407296
-0.15526299 0.08033844 0.08716897 0.10086726 -0.23418137 -0.101203576 -0.18246067 -0.011413944
-0.023427969 0.029346837 -0.26327246 0.028585471 -0.07760123 0.015009799 -0.18453433 0.057115577
-0.0133915935 -0.010828036 -0.07213483 -0.1600994 -0.077807784 0.010703427 0.14415409 -0.031435415
-0.0033355583 -0.5085732 -0.17977597 -0.016804509 -0.1414125 -0.0018841705 0.03166681 -0.030756906
-0.04397727 -0.20753549 -0.20775768 0.08824068 -0.14872213 -0.2300833 -0.04540246 0.11839703
-0.087756686 -0.1536281 -0.17523758 0.087685905 -0.039880607 -0.061945546 -0.010685165 -0.08605414
-0.019082684 -0.005832903 -0.16795549 -0.03652707 -0.10558808 -0.07468123 -0.049015306 -0.13678348
-0.056617815 -0.004216287 0.012127146 -0.029770592 0.058397144 -0.054718632 0.15604772 -0.06353438
0.01872431 -0.0069638025 0.111238055 -0.31595695 0.014388222 0.12617818 0.105458595 -0.23140596
-0.26452672 -0.74944574 -0.02021511 -0.19336464 0.031864706 0.030924069 -0.2971317 -0.08196966
-0.06364549 -0.0137616135 -0.03469087 -0.088745624 0.04759396 -0.21834739 -0.037853718 -0.08857338
0.09014771 0.0032838455 0.072123565 -0.11986079 -0.015029315 0.11938084 0.026815541 -0.058659393
-0.07381751 0.10935082 0.06333208 0.025745198 0.08192366 0.06998186 0.16674195 0.09789296
-0.12781316 -0.010796837 0.059554517 0.055183098 -0.039735466 -0.020044027 0.0052207196 -0.037190504
-0.05296531 -0.1443155 -0.31215665 0.06961626 0.048383825 0.0084682265 0.06077927 -0.21148479
0.012592063 0.00022204063 0.024331657 0.05684825 -0.07059757 -0.06125582 -0.031894 -0.043371063
0.06542972 -0.10107404 -0.30767623 -0.22575788 -0.06015284 -0.2540155 -0.07289178 -0.217352

fc2.bias f4 [70]
00000000: b91d 1bbe 3993 7abe 653d aabd d577 86be
00000010: 4059 48be 8a4a 223c 5ddf 63be ea24 ecba
00000020: bd41 683c d918 19bd df5c 25be 675e 303e
00000030: 5098 b1bc 6e6d 613d 6ca8 373e e3ac ebbb
00000040: 153d 1fbe 3fdb 25bd fc07 dabd e8b9 793e
00000050: ad4a a8bd 4f49 4c3e a1f1 cd3d 5bb9 85be
00000060: 43e5 083e 4c55 35be f0d8 4e3e bfc4 02be
00000070: 2509 93bc 50f5 59be 74e9 43bd 1794 d2bc
00000080: 77f0 b63e 133b a43c 9aff 9cbb 1642 803c
00000090: f0b5 15be 7000 4fbe d7be 8ebe a5c7 86be
000000a0: 7f23 04bf c1a6 37bd 0331 973d 901f 03bc
000000b0: fee8 983e 5118 c73e 9ead bd3c 89ff 85bd
000000c0: 3193 873d 9763 07be a734 af3d 9e3e 8f3d
000000d0: 0981 2f3e 3cda ea3d a691 ca3b 4411 1a3e
000000e0: c7fb 35be 64a3 e73d 0628 7fbd a270 7bbd
000000f0: f2a0 23bd afb8 043d f7db 80be 4954 89bc
00000100: b971 53be f56d 193e 9be5 8b3c 1ddc 26bd
00000110: cc0a ba3d c80d c1bd
-0.15148057 -0.24470223 -0.08312491 -0.262633 -0.19565296 0.009905467 -0.22253175 -0.0018016372
0.0141758295 -0.037377212 -0.16148709 0.17223512 -0.021679074 0.055036 0.17935342 -0.0071922406
-0.15550645 -0.040492292 -0.10646054 0.24387324 -0.08217368 0.1994984 0.10055853 -0.26117977
0.13368706 -0.1770832 0.20199943 -0.12770365 -0.017948696 -0.21284986 -0.04783006 -0.02570538
0.35730335 0.0200477 -0.0047912123 0.015656512 -0.14620185 -0.2021501 -0.27879974 -0.26324192
-0.5161666 -0.044836763 0.07382395 -0.008003131 0.2986526 0.3888574 0.023154076 -0.0654288
0.066198714 -0.13221584 0.085549645 0.06994365 0.17139067 0.11467406 0.0061819134 0.15045649
-0.17771827 0.11310461 -0.06229403 -0.061386712 -0.03994841 0.03240269 -0.2516782 -0.016763823
-0.2064885 0.14983352 0.017077258 -0.04073726 0.090840906 -0.09426457
