nettalk_state_dict.pt (torch, 522962 bytes, 5 tensors)

embedding.weight f4 [34, 128]
00000000: a867 9b3e a17c 24be 57d2 61be bf6a 803e
00000010: cbfa 3f3f 93af 583e 4cd8 dc3e 702a 4bbe
00000020: f678 82be 0acd 4e3e 71a6 f2be 7506 ac3d
00000030: fab1 f3bd a1fc 133d c1fd 04be a804 92be
00000040: 372a 08bf a4d4 1abf ee31 3abe 9c71 3bbf
00000050: 5226 38be 78ac b43d ee10 25be e3c0 6dbd
00000060: 2155 e1bd 347f a2be 222c 28bf c3ff 833e
00000070: c297 9c3e d839 b53d 17dd 1fbe 1a8e e33e
00000080: bc96 573f 614e 98bd 5454 ae3e 8734 893e
00000090: 21d9 8a3e a7b0 9bbe 5b4e 213f c80c e83d
000000a0: 3806 bebd f0df 0c3d 415c b83c 0149 dbbc
000000b0: 4715 38bf 8473 f8be 7922 1cbf 991e 1bbf
000000c0: e1e3 e33d b4af 48be c68a 1e3f 0722 22be
000000d0: 5435 6b3d c369 e2be eadf 683d 6426 803d
000000e0: 9ce7 d0bc 15a4 1d3d 1668 3ebf 38de 95be
000000f0: 8e2b 5abd 97de 20bf 21db e2be 89d3 8d3e
00000100: b05c 063e a0ac 8f3e 5234 4e3f 7371 533e
00000110: b24f c53e 2d08 f4be d0eb 5d3f 2f98 e53e
00000120: 8294 313e 4d1e 5ebe 7602 943e 5b81 453f
00000130: 3988 d6be db77 e7be 167c 53bc c83e 90be
00000140: 6fef bebe 5e2e 993f d48a b5be 96c4 ee3f
00000150: a8b1 29be 7265 0ebf 9f07 003e b383 2dbe
00000160: 421f 93be 4d85 abbe 76c3 343e 959e 70bf
00000170: 82bf e0bd bbe4 2d3f f91b 27bd 3049 c8be
00000180: db16 edbe 33c5 853e 251b fa3d 4259 c43e
00000190: a2fb 80bc 16a1 c0be 4b7a c13c 8804 18bf
000001a0: b8d1 7c3e bda2 ff3d adf3 acbe 34e0 a63e
000001b0: 45ca 53bc 7251 0fbe 8243 02bf 7887 19be
000001c0: 4d2b 163e 2c42 7fbe 9da7 ebbe a431 96be
000001d0: fd9d 943e d481 c23e 7618 16be 5294 ba3e
000001e0: ff36 d6bc b82b 22bf b2d9 983e b399 133e
000001f0: 96bb 2b3f 817a abbe 4383 46be c459 0fbe
00000200: 7831 8c3f d7c9 113f a329 a2bf 0f6a 3b3f
00000210: b00d c83c 2d28 24bd 652b 67bf 29f4 333f
00000220: 7a98 6fbf ddc6 b83f 89fb 0f3b e4b3 5f3f
00000230: 5172 9dbc 11ef 49bf f5a2 913f 969a 0f3e
00000240: 3dd7 83bf 11b9 8d3f 3b13 af3e cd7c 97bf
00000250: dbca 29be f54b 9d3d f0d6 03be 4b83 933f
00000260: 2751 ea3d 50fa a73f cd39 133f d303 e1be
00000270: 3573 a5be b245 9cbf 39ca 2bbf 6037 1c3f
00000280: c1fa 893f 3d0a 4f3f b9f2 43bf 8952 113f
00000290: d8c8 a93f 62f2 76be 0db7 593f 2b19 13be
000002a0: 29ff 17bf 2eb2 e03c 5aa2 433f 7875 17bf
000002b0: 7255 3bbf b39d d8bf a0e0 4cbf 8e41 9ebf
000002c0: 1be9 7c3f 1d51 d53e b55a 483d b455 da3e
000002d0: 1d7c 453f 280b a2bf c01a 333f 066e 8f3f
000002e0: 3834 d0bd 9648 b6be 8542 dbbf 8b01 883f
000002f0: 9c8b 213f 3208 9a3f a2dd 8fbf 7e22 6abf
00000300: 2d81 de3d 3b31 5abf bbab d03f 7b79 06bf
00000310: b30e 8c3f bc53 50bd aef3 253f c272 0940
00000320: f4ea 1a3f 2eb3 f33d a63b a13f 13bd 40bf
00000330: 431b 263d 8e22 053f 41ac 19bf 5f9b 1c3f
00000340: bfcc 3d3f ed1c b4bf 742b d0be c211 f03f
00000350: dd9e ff3d 97c0 19be 628d 7b3e fa89 2cbd
00000360: 381a 8b3d 7f36 073f c127 4ebf 105a ffbf
00000370: a1e7 6abf 4766 053e 07cf 743e 9bb3 73bf
00000380: 239a 85bf e4ee c53d 5e27 d9bf e5b1 213f
00000390: 57e0 1b3f 6cc5 b4be bb32 ffbe f18c 4bbf
000003a0: 271b 163f d08c b63c 9858 e5be 21cd a53e
000003b0: 6f80 13bf 0398 90bf d84a debd dff7 2fbc
000003c0: 01fe 16be ad93 4e3e d8a6 94bf 26ce 2fbf
000003d0: 0882 753f dd80 e73e 7d5b eebf 7165 1f3c
000003e0: fcb3 e53f 8744 87bf 1db8 a4bf 13ae e43e
000003f0: bcbd 8c3f 7654 37bf 698a 95be f81d 283e
0.3035252 -0.16063167 -0.22052895 0.2508144 0.74992055 0.21160726 0.4313377 -0.19840407
-0.2548291 0.20195404 -0.4739261 0.08399669 -0.11899181 0.036129598 -0.12987424 -0.28519177
-0.53189415 -0.60480714 -0.18183109 -0.7322023 -0.17983368 0.08821958 -0.1611974 -0.05804528
-0.11002565 -0.31737673 -0.6569234 0.25781068 0.30584532 0.088489234 -0.15611683 0.44444352
0.8421438 -0.074368246 0.34048712 0.26797888 0.2711878 -0.30408213 0.63010186 0.11330563
-0.0927853 0.03439325 0.022504928 -0.02676821 -0.71907467 -0.4852563 -0.609901 -0.60593563
0.11127449 -0.19598275 0.619305 -0.15833293 0.057423905 -0.44221315 0.056854166 0.062573224
-0.025501065 0.03848656 -0.7437757 -0.29271102 -0.053264193 -0.62839645 -0.44307807 0.2770045
0.13121295 0.2806139 0.80548584 0.20648746 0.38537365 -0.47662488 0.86687946 0.4484267
0.17341807 -0.21691246 0.28908128 0.77150506 -0.41900805 -0.4520863 -0.012908002 -0.28172898
-0.37292048 1.1967275 -0.3545748 1.8653743 -0.16571677 -0.55623543 0.12502907 -0.1694477
-0.28734785 -0.33500138 0.17652687 -0.93991977 -0.10974027 0.6792714 -0.04079816 -0.39118338
-0.463065 0.26127014 0.12212209 0.38349348 -0.015744988 -0.376229 0.023617884 -0.59381914
0.24689376 0.12482212 -0.3377966 0.32592928 -0.012926643 -0.13995913 -0.5088426 -0.14993083
0.14664955 -0.24927586 -0.46026316 -0.29334748 0.29026785 0.37989676 -0.14657769 0.36441284
-0.026149271 -0.6334796 0.29853588 0.144141 0.6708311 -0.334919 -0.1938601 -0.13999087
1.0952597 0.5694861 -1.2668957 0.7320871 0.02442059 -0.040077377 -0.9030059 0.70294434
-0.93592036 1.4435688 0.0021969995 0.87383866 -0.01921955 -0.7888041 1.1377856 0.14023814
-1.030006 1.1072103 0.3419436 -1.1834961 -0.1658129 0.07680503 -0.12874961 1.1524442
0.1144126 1.3123264 0.5751007 -0.4394823 -0.32314458 -1.2208769 -0.6710544 0.61021996
1.0779649 0.80875 -0.7654224 0.56766564 1.3264418 -0.24115899 0.8504494 -0.1436507
-0.5937372 0.027428713 0.76419604 -0.5916362 -0.73177254 -1.6923126 -0.8003025 -1.2363756
0.9879319 0.41663447 0.04891463 0.4264351 0.77142507 -1.2659655 0.6996269 1.1205451
-0.1016621 -0.35602254 -1.7129675 1.0625471 0.6310365 1.2033751 -1.1239512 -0.9145888
0.10864482 -0.8523137 1.6302408 -0.52529114 1.0941986 -0.050861105 0.6482495 2.1476293
0.6051476 0.1189941 1.2596328 -0.75288504 0.040553343 0.5200585 -0.60028464 0.6117458
0.7414054 -1.4071327 -0.40658152 1.8755419 0.12481473 -0.15014873 0.24565652 -0.042123772
0.0679211 0.5281753 -0.8052941 -1.994936 -0.9175969 0.13027297 0.239071 -0.9519593
-1.0437664 0.096647054 -1.6965139 0.6316207 0.6088919 -0.3530687 -0.49843392 -0.79511935
0.5863518 0.022283942 -0.44794154 0.32383063 -0.5761785 -1.129639 -0.10854119 -0.010740249
-0.14745332 0.20173521 -1.1613417 -0.6867393 0.95901537 0.45215502 -1.862167 0.009728775
1.7945552 -1.0567788 -1.2868687 0.44664058 1.0995402 -0.7161325 -0.2920716 0.16417682

fc1.weight f4 [128, 896]
00000000: d91d 8b3c 742b 02bd decd 2b3d a930 dbbb
00000010: 3395 2abd f5d7 88bd 658e d9bb 6090 fc3c
00000020: 03e7 183d 7178 e8bc be3a d3bc 08c6 2b3d
00000030: 4fc6 4b3d 7985 96bc 7aef 163d 5d0c 85bc
00000040: 0bb4 a83a 249a ca3c 40b9 043d a232 ad3d
00000050: c66f 6ebd 9088 2abd 85ee 713c cb40 11bd
00000060: 338c a3bc c092 f13b a8b3 923d 3a96 bebc
00000070: 7816 0c3c ecc4 8abb 7ced f4bc bdc6 013c
00000080: 4494 79ba 6861 8c3d 5a47 5fbc 29aa 033d
00000090: 87fd 0dbd 50a5 1dbd 0427 9e3c 458a 3a3d
000000a0: b630 8fbd d568 643b be4a 553d b7c7 84bb
000000b0: 54c0 8dbd efa1 bebd 3760 963d b5d7 c33c
000000c0: 7c9f 553d 5977 f03c cf64 fe3a 2580 9e3d
000000d0: be52 9c3c 7312 e93b 2d0c 083b 1cfa d2bd
000000e0: 3721 22bc a4ba 3cbd b6e7 2d3d 23ac 5b3d
000000f0: 1804 48bc 9507 393d f1e1 913c edd5 89bc
00000100: bdc2 793a b5ca 14bd 23c5 923b 745e 193c
00000110: 7c81 6abd dee8 e93c c7c7 9fbd 60de 7d3d
00000120: e8ad ccbd c39c a2bd 665c ad3c c4b3 013d
00000130: f5ed b5bc f9e2 823c d595 8f3c 8094 af3c
00000140: 3512 803d b485 e2bb 5c83 fa3c 0707 2bbd
00000150: 8b12 183c 2a2c 203c 4aca 0abe e80d 133d
00000160: d5a2 63bd e978 c3bc 6397 95bd 6738 fd3c
00000170: 098d 35bd 4f0c cbbc f1ba b93d 26ea a7bd
00000180: 1fe1 fcbc 82e8 1a3d cb32 c2bc 9c71 85bd
00000190: 6ef8 94bd 7513 de3d 1b7e 5abc c4d9 01bb
000001a0: 3615 83bd 3268 833c d6cc 4b3d 7eb7 453d
000001b0: 7822 403d 82a1 823d 050b 913d 3cde 8d3c
000001c0: 2a53 1abd f58f 073d 10e8 f13c db53 1cbc
000001d0: a201 7cbd 129f 273c ed46 513d 53c1 823c
000001e0: da3c 77bd 03ef a93b f1c8 a3bd 37c6 343c
000001f0: a670 f83c 1d8a 5abd 6665 8bbc f814 143b
00000200: 445a d9bd f34e 1f3d c849 e63c e066 4ebd
00000210: 6a02 9cbd ba02 523c 126b f0bd e79c 403d
00000220: 3a21 c03c 1c9e 123d c93c d33d 6de1 86bc
00000230: fc58 9c3a 17db 08be 541e bc3d d774 443d
00000240: d075 31bc 8c6f 323e 72d9 753d fe2a 4b3d
00000250: c8c5 42bc bd31 59bc b40e 03bd bb11 b93c
00000260: 489f 773d 9f4c 003e 21d9 a13d 2c16 fcbc
00000270: 4440 89bd ebd4 373c 4dfe 963c 4000 8cbc
00000280: fcfd a2bd f213 423d 35ef 86bd fd6b aebd
00000290: e238 983c 9058 883d 958b 51be 3501 2fbc
000002a0: 52b0 513d 2cf6 da3b 2686 17bb 5d1e e03d
000002b0: 63fe 9b3d dfa4 043d d492 3b3d 91b7 833d
000002c0: c403 34bd 0ed1 bd3d 5db5 c1bd 5a3a fd3d
000002d0: 44e7 f13c af89 ea3d e326 5ebc 2995 7d3c
000002e0: 55d2 21bd 30f9 89bd 5a70 813d da6f e93d
000002f0: eca4 953c 06e6 c63d e9ba 323e 26fa 08bd
00000300: a8be bcbd efde bb3c 8eba fdbd 2785 b9bc
00000310: 9842 01bd c8e7 aa3c a45b 91bd daac e1bc
00000320: d47e d0bc d2b3 ca3c 264b 4f3c 8556 97bd
00000330: 5dd7 8d3c 7972 203e feb8 193c dc89 973d
00000340: 3146 8b3d 6554 2abe 35be 143e 4e03 59be
00000350: 7244 9dbc 4dac 963d f150 8a3d 6133 d9bc
00000360: 769a b33d 0fdc b13d a24a dfbd 49f8 de3c
00000370: 8b2f e1bd e1bd 0bbe 7ad1 10bd bd74 a83d
00000380: 3717 ab3d 2176 e5bd 6d74 bebd 99b8 8bbd
00000390: 55f5 23bd 297a 013e 3dce 1abd 0a2a 8a3d
000003a0: 0d34 6bbd 5d03 82bd f291 203d 454e 8abd
000003b0: 1e54 fc3c 398b a23d 6808 d03d 1cdb 9a3d
000003c0: a4f3 503c 8146 6e3d a693 963d 039f 043e
000003d0: 12e4 82bd 1710 36bd db88 0dbd b133 77bd
000003e0: d38b af3d c708 3d3e 5f76 093c c11e 4e3d
000003f0: 7a7d 5ebd 2d85 f0bc fe4d 983d a189 673d
0.016982006 -0.03177972 0.041944377 -0.0066891504 -0.041646194 -0.066818155 -0.006639289 0.030830562
0.037329685 -0.028377743 -0.025784846 0.041936904 0.04974967 -0.018374192 0.036849476 -0.016241247
0.001287104 0.024731703 0.03240323 0.08456923 -0.058212064 -0.041634142 0.01476634 -0.035462182
-0.019964313 0.0073722303 0.07163173 -0.023264993 0.008550279 -0.0042349007 -0.029898398 0.007920918
-0.00095206895 0.06854516 -0.013627851 0.0321447 -0.03466561 -0.038487732 0.019305713 0.04554202
-0.06991713 0.0034852524 0.052073233 -0.004052128 -0.06921449 -0.0930823 0.0734257 0.023906568
0.05215405 0.029353784 0.0019408705 0.077392854 0.019082423 0.007112795 0.002075921 -0.10301611
-0.009895614 -0.046076432 0.042457305 0.05363096 -0.012208007 0.045173246 0.017807933 -0.01682564
0.00095276145 -0.03632613 0.004479067 0.009360898 -0.057252392 0.028553423 -0.078017764 0.06197965
-0.099941075 -0.07940056 0.021162223 0.03166558 -0.022208193 0.01597737 0.0175275 0.021433115
0.06253473 -0.0069129113 0.030580215 -0.04175475 0.009281765 0.0097761545 -0.1355373 0.035901934
-0.05557521 -0.023861365 -0.07304265 0.030910684 -0.044323955 -0.024786143 0.09068859 -0.08198957
-0.030869065 0.037819393 -0.02370586 -0.0651581 -0.07273947 0.10843555 -0.01333573 -0.0019813636
-0.0640053 0.016040895 0.049755894 0.048270695 0.046907872 0.063784614 0.0708218 0.017317884
-0.037676968 0.033096272 0.029529601 -0.009541477 -0.061524995 0.010230796 0.05109303 0.015961325
-0.060360767 0.005185963 -0.07997311 0.011033586 0.030327152 -0.05335437 -0.017016124 0.0022595506
-0.1061292 0.03889365 0.028111354 -0.050391078 -0.07617648 0.012818033 -0.11739172 0.047024634
0.023453344 0.035795316 0.10314328 -0.016464913 0.0011928375 -0.13364826 0.09185472 0.04796299
-0.010831311 0.17425364 0.060021825 0.049601547 -0.011887975 -0.013256487 -0.031996444 0.022591462
0.060454637 0.12529229 0.07902742 -0.030772291 -0.06701711 0.011220197 0.018431807 -0.017089963
-0.079586 0.047382303 -0.06588594 -0.08516691 0.018581811 0.06657517 -0.20463403 -0.01068144
0.051193543 0.006682178 -0.002312073 0.10943291 0.0761688 0.032383796 0.045794323 0.06431497
-0.043948904 0.0926839 -0.094584204 0.12364645 0.029529221 0.11452042 -0.013559076 0.015477457
-0.03950723 -0.06736982 0.063202575 0.11398287 0.018267117 0.09711842 0.17454113 -0.033441685
-0.09216052 0.022933451 -0.12389098 -0.0226465 -0.03155765 0.020862475 -0.07097557 -0.027548242
-0.025451101 0.024743948 0.012652194 -0.07389549 0.017314607 0.15668668 0.0093824845 0.073993415
0.06800497 -0.16633756 0.14525683 -0.21192667 -0.019197676 0.073570825 0.067537196 -0.026513757
0.087696955 0.08684551 -0.10902907 0.027218001 -0.10995396 -0.13646652 -0.035356022 0.08225391
0.08354037 -0.11204172 -0.0929955 -0.068223186 -0.04002889 0.12644257 -0.03779434 0.067462996
-0.057422686 -0.06348298 0.039201684 -0.0675321 0.030801829 0.07936711 0.10157853 0.07561323
0.012753401 0.058172707 0.073523805 0.12951283 -0.06391157 -0.04444894 -0.034554344 -0.06035203
0.08571591 0.1846038 0.008390038 0.050322298 -0.054318883 -0.029360378 0.07436751 0.056527738

fc1.bias f4 [128]
00000000: e9b6 debd 6406 68bd faa3 30be 973b 14be
00000010: 7d9f 1fbe 8f42 0ebe d948 d73c 507f 0abe
00000020: 4a32 33be 404b 7cbe a63f 45be d59b d7bd
00000030: 87c3 0bbe 0e2b 14be 523f 8dbd 1357 cabd
00000040: 3bb0 3bbe 3851 debd 5574 c8bd 583d 61be
00000050: 0220 34be e0fd 503c ecb9 27be 1f9e 12be
00000060: 9dbc 93be 17a5 4bbe 66bd 3abe b5f4 a8bd
00000070: 24f5 65bd 6c43 cebd eb19 ae3c 6ab2 69be
00000080: 9959 f2bd 65d3 99be 69d5 1bbe ecb0 1bbe
00000090: 4412 16be 30ba 7fbe 0b50 4cbe f3f4 e6bd
000000a0: e8a9 51be 5c7c 393d 4d33 69bd 7720 57be
000000b0: 56ec 83bd 030c 1abe b5e4 41be 1305 c0bd
000000c0: 6f7d 52bd 4748 62be 7bbe 00be 93c8 37be
000000d0: c8b7 aabd 0fa0 5fbd 2383 23be 9a51 28be
000000e0: e03e 5cbe 6886 773c efc7 93be e4b6 d9bb
000000f0: 979d f1bd bea3 92be 36a1 93bd 82e1 45be
00000100: 839c cbbd bfa2 5bbd f819 01be a843 afbd
00000110: ac72 79bd b152 9bbe 2ba2 64bc 340e 11be
00000120: fdfd d3bd 0899 fabd 15ca 02be e6eb 2bbe
00000130: b700 79be 9509 9cbd 6074 07be 4830 71bc
00000140: 783b 7dbd 66e4 fcbd 208d 44be a6b4 48be
00000150: d568 56bd 197d 50be fd03 57be 3b45 99bd
00000160: d1a3 2fbe bf87 10be d96a b0bd 98cd d2bd
00000170: d4a5 96bd bb73 3ebd 2c1b cebd 10c6 36be
00000180: 1d43 80be a077 fdbd 8adc 47be bbaf bdbd
00000190: a27d 3fbe 833f b6bd 6bcd 16be 6941 893b
000001a0: b061 1dbe 43ff dabd a034 2ebe 8884 38be
000001b0: 0d79 08be 25cd aebd 3165 97bd 7921 0fbe
000001c0: 7f1d 04be cf21 63be f8a7 d03b 0023 13be
000001d0: 61f9 53be b7aa 16be 4714 3cbe 2fd6 acbd
000001e0: bff3 91be fe39 7ebe 22d8 abbe bc52 06be
000001f0: f428 88bd 4255 64be fb77 dbbd 5e67 0cbe
-0.10874731 -0.05664672 -0.17250052 -0.14475857 -0.15588184 -0.13892578 0.026279854 -0.13525128
-0.17499653 -0.2463808 -0.19262561 -0.105277695 -0.13648807 -0.14469549 -0.06896843 -0.09879889
-0.18328945 -0.10855335 -0.097878136 -0.21996057 -0.17590335 0.012755841 -0.16379517 -0.14318131
-0.28854838 -0.19887196 -0.18236312 -0.08249799 -0.056141987 -0.100714535 0.021252593 -0.22821966
-0.11833496 -0.30044094 -0.15218128 -0.15204209 -0.14655405 -0.24973369 -0.19952409 -0.11277189
-0.2047497 0.045284614 -0.05693369 -0.21008478 -0.06441562 -0.15043645 -0.18934901 -0.09375968
-0.051389154 -0.22097884 -0.12572663 -0.17947607 -0.08335835 -0.054596003 -0.15967993 -0.16437379
-0.2150836 0.015107729 -0.28863475 -0.0066441167 -0.11797636 -0.2864055 -0.07208483 -0.19324306
-0.099419616 -0.053622004 -0.12607563 -0.08557826 -0.060900375 -0.30336526 -0.0139546795 -0.14165574
-0.10351179 -0.1223622 -0.127724 -0.16789207 -0.24316679 -0.07619015 -0.13227987 -0.014720984
-0.061824292 -0.12348251 -0.1919446 -0.19600162 -0.05234607 -0.20360221 -0.20997615 -0.07483908
-0.17152335 -0.14114283 -0.086141296 -0.1029312 -0.07355848 -0.046497088 -0.100637764 -0.17848992
-0.25051203 -0.12376332 -0.19517723 -0.092620336 -0.18700269 -0.08898833 -0.14726798 0.0041887057
-0.15369296 -0.106932186 -0.17012262 -0.18019307 -0.13327427 -0.08535222 -0.073923476 -0.13977613
-0.12901877 -0.22180866 0.0063676797 -0.1436882 -0.20700599 -0.1471356 -0.1836711 -0.0843929
-0.28506276 -0.2482681 -0.33563334 -0.13117498 -0.06648436 -0.22298148 -0.10716244 -0.13711306

fc2.weight f4 [84, 128]
00000000: f18e 093d 462f 83bd a516 65be 219a 5ebe
00000010: b639 95be 1dae 19bc 6483 c7bb 7b3c b5bd
00000020: 742f d6bf 8728 b5bf ea03 cdbf 6237 44be
00000030: be77 66be 5eaa 3cbe 35c9 21be 426a 65be
00000040: e27d eb3d 3392 b9be 37d6 4b3d 7209 bebe
00000050: 6bc6 27bf 25b0 58bd 72e9 69bf 4b3e 86be
00000060: d018 01c0 1988 6dbf ab2b d7bf 4d67 0b3e
00000070: a325 bb3d 3611 36bd d550 e4bd 5e22 73bf
00000080: 8096 babd 2515 48bf 7c79 9bbf 716e 36be
00000090: eab8 8cbe 1e1f 08bf dc2e b2be c645 22bd
000000a0: 09e3 56bf 2c79 a1bc 1785 c3bd 07c5 80bf
000000b0: 030a 88bc e7d5 a23c 0eac 1ebf e269 01bf
000000c0: 5c8f 53bc f242 8bbf 57c8 7dbd a155 41bf
000000d0: d7f3 c8be 9a7a 06bf 8c07 1ebf e848 f5be
000000e0: 7469 4dbe 8127 06bd 0353 83bf bfec 903d
000000f0: 81ed e3be 89af 20c0 c4b9 febd e9ca 7bbe
00000100: 3666 92be c99b 34be 7e48 febe 2811 c9bc
00000110: 6269 3ebe 00da 06bf 7709 923d 6bcf e0be
00000120: 61e5 98be 7bf2 13bf f3c1 683c 2407 bcbd
00000130: 9637 59be 2ba5 a8bd a1e9 81be 02ed 043e
00000140: 46a5 843d d8c5 3ebf 24d3 4bbf 11f1 b1bd
00000150: 00b8 e7bc 481d 2bbd 5b63 b8bd 1fa7 24be
00000160: 46b3 b6be 080d 9cbf 5b36 f2bc b492 8fbe
00000170: b984 a0be 06db a73d ede0 e8bd 9a86 d3bf
00000180: 7d5d 79be 23ee e63d 9c81 a4bc a3f8 82bc
00000190: 95a3 8fbe 2b80 14c0 c9ab 37bf e931 1f3d
000001a0: 6d30 173e 335f 1fbe e21a 8abe 9b15 f2bf
000001b0: d59e 63bd c9ce eb3d 4d3c d8bd 6a28 c93d
000001c0: 9297 2dbf 26fd 2c3d d182 493d 741d a7be
000001d0: 0703 80bd 53e5 d5bf 81f8 45bf 74bd 29bf
000001e0: 2621 483d 7558 3cbf 62de f0bf 6e1a dabe
000001f0: 8cc9 86be 3792 81bf 4675 a0bf 763f 273d
00000200: 22fd 9e3d fd0e d53d 5439 893d 9f2f 8f3d
00000210: 4c21 863d 551b 31bc c2d9 83bd 4ed5 66bc
00000220: c7b4 3bbe 7cec 15be 40d1 243c 2aac 913d
00000230: 6c75 a4bd 0dd4 75bd f8fc 213d 4df1 24be
00000240: bb1c cebe 7867 9c3b a3ec 023d e692 3fbe
00000250: 596a 8dbd f1a3 0cbd 6940 babc b1af 86bb
00000260: f4c4 a53d 93ec 5a3d 5f3e bbbc 5d37 2abd
00000270: 3380 913c c70b bebd c24b 8b3d 7f2c 963d
00000280: 5b36 e53c 140a 283a 96c6 b5bd f581 94bd
00000290: 3c0f 70bd 5d26 99bb 8483 843d 35c0 fc3b
000002a0: 32a3 bbbd c96c e7bd 0f71 a9bd f2f2 cdbd
000002b0: 482c 123d bd37 1abe d883 e7bb bba6 1b3d
000002c0: fd21 1bbe 333d aebd 0a06 d5b8 d0b5 a1bc
000002d0: 499b e03c 1b25 98bd ea06 533d a6a9 813c
000002e0: 264c 42be 600b bcbb a315 9c3d 24a3 533c
000002f0: abc4 54bd dc65 54bd 76d0 b83d a0c1 30bd
00000300: 61a6 b03d 3756 64be d896 b1bc 858c bdbb
00000310: 9a97 d73c 863e 71bc 75b9 4b3c 401c 34bd
00000320: f564 77be 02cf 8cbe cc06 babc c1a7 1bbe
00000330: a955 b7bc 4205 c03c c104 953c ef98 63be
00000340: 0293 8c3c 42cd 74bc cdf1 86bd 6d19 8ebe
00000350: 4c7e ad3d ffb3 b3bc cd6c 803c a3e3 8abb
00000360: 9b52 2a3e 0857 55bd 5ac1 6e3d 497a 8dbc
00000370: 5e4d 33bd 4a90 f03b a217 b2bd 47cc 0fbd
00000380: da91 1dbe ab51 373d 549c 8bbd e96c c43d
00000390: d5f0 66bd a432 a6bb 1f2e 6abe 1d07 9d3c
000003a0: b3d8 a63d 76ef c0bd 712c 6abe f121 46bd
000003b0: e35a c1bc 3968 353d 8fda a2bc 8813 97bd
000003c0: fd96 bc3d 821e c7be ebfb 3bbe 1b1b a23d
000003d0: cf9e 503d e7b7 ab3c 4d7e c73d 7655 b53d
000003e0: f978 48be 682e 073e 6e83 d2be c372 eb3c
000003f0: bebf c9bd 40db 08bd 0202 7dbe 9c75 5cbe
0.033583585 -0.06405501 -0.2237192 -0.21738483 -0.29145592 -0.009379891 -0.006088661 -0.08849426
-1.6733232 -1.4152993 -1.601682 -0.19161752 -0.22506616 -0.18424365 -0.1579941 -0.22403815
0.114986196 -0.36244354 0.049764838 -0.3711658 -0.65537137 -0.05290236 -0.91371834 -0.262194
-2.0171394 -0.92785794 -1.6810201 0.13613625 0.09138038 -0.044450007 -0.1114823 -0.94974315
-0.09110737 -0.78157264 -1.2146449 -0.17815568 -0.27484828 -0.5317248 -0.34801376 -0.039617322
-0.8394018 -0.0197111 -0.09546869 -1.0060128 -0.016606336 0.019877387 -0.61981285 -0.5055219
-0.0129125975 -1.0879805 -0.061958637 -0.75521284 -0.39248535 -0.52530825 -0.61730266 -0.47907186
-0.20059758 -0.032752518 -1.0259708 0.07076406 -0.4451714 -2.5107138 -0.12437776 -0.24589123
-0.28593606 -0.17637552 -0.49664682 -0.024544314 -0.18594888 -0.5267639 0.071307115 -0.43908247
-0.29862502 -0.5779187 0.014206397 -0.091810495 -0.2121261 -0.08234628 -0.25373557 0.12981036
0.06476836 -0.74520636 -0.7961905 -0.08688558 -0.02828598 -0.04177597 -0.090033256 -0.16079377
-0.3568365 -1.2191477 -0.029566934 -0.28041613 -0.3135126 0.08196072 -0.11371026 -1.6525452
-0.24352069 0.1127589 -0.020081334 -0.0159877 -0.2805449 -2.3203228 -0.717465 0.038865957
0.14764567 -0.1556366 -0.26973635 -1.8912843 -0.055571396 0.115140505 -0.105583765 0.098221615
-0.678094 0.04223361 0.049197022 -0.32639658 -0.062505774 -1.6710609 -0.7733231 -0.6630471
0.048859738 -0.73572475 -1.8817866 -0.4259829 -0.26325643 -1.0122746 -1.2535789 0.040832005
0.07763125 0.104032494 0.067003876 0.06991505 0.065493196 -0.010809739 -0.064380184 -0.014088942
-0.1833068 -0.14640993 0.010059655 0.07112916 -0.08030209 -0.06001668 0.03954789 -0.16107674
-0.40256295 0.0047730766 0.031963956 -0.18708381 -0.0690505 -0.034336034 -0.022735791 -0.0041102995
0.080942065 0.05344827 -0.02285689 -0.041556705 0.017761325 -0.0927959 0.06801559 0.07332706
0.02798002 0.0006410193 -0.08875768 -0.0725135 -0.05860828 -0.0046737627 0.06470397 0.0077133426
-0.091619864 -0.11300046 -0.08273517 -0.10056104 0.03568676 -0.15060325 -0.0070652775 0.038000803
-0.15149684 -0.085077666 -0.00010157756 -0.019740015 0.027417796 -0.07428952 0.051520266 0.015827965
-0.18974361 -0.0057386607 0.076213144 0.012917314 -0.05194537 -0.051854953 0.09024136 -0.043153405
0.08625484 -0.22298513 -0.021678373 -0.0057845735 0.026317406 -0.014724379 0.012434353 -0.043972254
-0.24159606 -0.27501684 -0.02270832 -0.15200712 -0.022379713 0.023440007 0.018190743 -0.22226308
0.017159943 -0.014941515 -0.065890886 -0.27753773 0.08471355 -0.021936415 0.01567688 -0.004238562
0.16633074 -0.052084953 0.058289863 -0.017270224 -0.043774955 0.0073414193 -0.08695914 -0.035106923
-0.15387669 0.04475562 -0.068169266 0.095910855 -0.05638202 -0.005071955 -0.22869156 0.019168431
0.08146801 -0.094206735 -0.22868516 -0.048372213 -0.023602908 0.044288848 -0.019879607 -0.07376772
0.09208486 -0.38890463 -0.18357818 0.07915326 0.0509327 0.020961715 0.09740887 0.08854191
-0.19577397 0.13201296 -0.41115898 0.028741246 -0.09851025 -0.033412218 -0.24707797 -0.2152924

fc2.bias f4 [84]
00000000: a0b1 6e3c b574 55be 86bb a53c 2743 ebbd
00000010: 6451 a7be 3726 30bd 869c 56be 117f 603c
00000020: de1f 34bd 2cc8 0ebd 5488 54bd 0e39 a8bd
00000030: 5af5 183c fc38 3e3e 1cfe fabd 6487 2ebe
00000040: 72e4 02bd 2392 793d 4cc6 b03d 0f93 913e
00000050: 6464 263e ea45 023e 9b23 b7bd fba4 77be
00000060: cea4 babd 9f8b 10be d28a dc3d 6d28 843a
00000070: 3201 9ebd bf23 08be eccb 1c3e cc72 5abc
00000080: 8792 953e d3f0 a8bd 9b10 15be 8838 873c
00000090: 0e0c 86be 7ad3 253d 32ab 59be 9ed1 63be
000000a0: 4920 8bbe 5ffc 083e 7c03 863c 70e0 2d3e
000000b0: 622f c33d dc0b 713e c4a0 d23c 9aff dd3c
000000c0: 19a7 023e 4169 fbbd 5df1 533c 8fd9 df3d
000000d0: 82be ec3d 0ba9 dd3d 0154 033e 88dc 803e
000000e0: 257d 25bc b061 953d b409 a83c 85e5 973c
000000f0: 2675 8fbd 13d0 91bc 8ab9 74bd 38ff 68bb
00000100: 8fec c6bd 8825 98bc 799c 26be 467f 2f3d
00000110: 3f95 1ebd 3ae3 f1bd 9d11 63be 749c 15be
00000120: dee6 72be f5ca 04be 55ff 59be fd2f 81be
00000130: 2575 34be 9a0c 423e 7911 a33d a24b c53b
00000140: 5d69 80bc 7ee2 473e 3e82 063e 8582 163e
0.014568716 -0.20845301 0.02023102 -0.11487418 -0.32679284 -0.043005195 -0.20958146 0.01370217
-0.043975703 -0.034858868 -0.051887825 -0.08214007 0.00933584 0.18576425 -0.12255499 -0.17043835
-0.031956144 0.060930382 0.08631572 0.2843251 0.16249233 0.12721983 -0.08942338 -0.24184029
-0.09113465 -0.14115761 0.107686654 0.0010082849 -0.07715072 -0.13294886 0.15312165 -0.013333034
0.29213354 -0.082490586 -0.14557116 0.016506448 -0.26181072 0.040484883 -0.21256712 -0.22247931
-0.2717307 0.13377522 0.016359083 0.16980147 0.09530522 0.2353968 0.025711425 0.02709942
0.12759055 -0.12275935 0.012935963 0.10930168 0.11559774 0.10823258 0.12825014 0.25168252
-0.010100638 0.07294023 0.02051244 0.01854206 -0.07004766 -0.017799413 -0.059747256 -0.0035552513
-0.09713089 -0.018572584 -0.16270627 0.042845987 -0.03871655 -0.11810918 -0.22174688 -0.14610463
-0.23720881 -0.12968047 -0.21288808 -0.25231925 -0.17622812 0.1895012 0.07962317 0.006020979
-0.015675241 0.19519994 0.13135621 0.14698227
